…
      "Resume From:  \n",
      "Output To:  /workspace/sunggu/4.Dose_img2img/model/[Ours]WU_CMT\n",
      "Save   To:  /workspace/sunggu/4.Dose_img2img/Predictions/Train/png/[Ours]WU_CMT/low2high/\n",
      "---------- Optimizer ----------\n",
      "Learning Rate:  0.0001\n",
      "Batchsize:  64\n",
      "Loading dataset ....\n",
      "Train [Total]  number =  6899\n",
      "Valid [Total]  number =  14\n",
      "Creating criterion: Perceptual+L1 Loss\n",
      "Creating model: WU_CMT\n",
      "Number of Learnable Params: 358611396\n",
      "WU_CMT(\n",
      "  (input_Proj): InputProj(\n",
      "    (conv1): Conv2d(1, 64, kernel_size=(3, 3), stride=(1, 1), padding=(1, 1), bias=False)\n",
      "    (relu1): LeakyReLU(negative_slope=0.01)\n",
      "  )\n",
      "  (cmt_stage_1): Sequential(\n",
      "    (0): CMTBlock(\n",
      "      (lpu): LPU(\n",
      "        (DWConv): DWCONV(\n",
      "          (depthwise): Conv2d(64, 64, kernel_size=(3, 3), stride=(1, 1), padding=(1, 1), groups=64)\n",
      "        )\n",
      "      )\n",
      "      (lmhsa): LMHSA(\n",
      "        (dwconv_k): DWCONV(\n",
      "          (depthwise): Conv2d(64, 64, kernel_size=(3, 3), stride=(8, 8), padding=(1, 1), groups=64)\n",
      "        )\n",
      "        (dwconv_v): DWCONV(\n",
      "          (depthwise): Conv2d(64, 64, kernel_size=(3, 3), stride=(8, 8), padding=(1, 1), groups=64)\n",
      "        )\n",
      "        (fc_q): Linear(in_features=64, out_features=32, bias=True)\n",
      "        (fc_k): Linear(in_features=64, out_features=32, bias=True)\n",
      "        (fc_v): Linear(in_features=64, out_features=32, bias=True)\n",
      "        (fc_o): Linear(in_features=32, out_features=64, bias=True)\n",
      "      )\n",
      "      (irffn): IRFFN(\n",
      "        (conv1): Sequential(\n",
      "          (0): Conv2d(64, 256, kernel_size=(1, 1), stride=(1, 1))\n",
      "          (1): BatchNorm2d(256, eps=1e-05, momentum=0.1, affine=True, track_running_stats=True)\n",
      "          (2): GELU()\n",
      "        )\n",
      "        (dwconv): Sequential(\n",
      "          (0): DWCONV(\n",
      "            (depthwise): Conv2d(256, 256, kernel_size=(3, 3), stride=(1, 1), padding=(1, 1), groups=256)\n",
      "          )\n",
      "          (1): BatchNorm2d(256, eps=1e-05, momentum=0.1, affine=True, track_running_stats=True)\n",
      "          (2): GELU()\n",
      "        )\n",
      "        (conv2): Sequential(\n",
      "          (0): Conv2d(256, 64, kernel_size=(1, 1), stride=(1, 1))\n",
      "          (1): BatchNorm2d(64, eps=1e-05, momentum=0.1, affine=True, track_running_stats=True)\n",
      "        )\n",
      "      )\n",
      "    )\n",
      "    (1): CMTBlock(\n",
      "      (lpu): LPU(\n",
      "        (DWConv): DWCONV(\n",
      "          (depthwise): Conv2d(64, 64, kernel_size=(3, 3), stride=(1, 1), padding=(1, 1), groups=64)\n",
      "        )\n",
      "      )\n",
      "      (lmhsa): LMHSA(\n",
      "        (dwconv_k): DWCONV(\n",
      "          (depthwise): Conv2d(64, 64, kernel_size=(3, 3), stride=(8, 8), padding=(1, 1), groups=64)\n",
      "        )\n",
      "        (dwconv_v): DWCONV(\n",
      "          (depthwise): Conv2d(64, 64, kernel_size=(3, 3), stride=(8, 8), padding=(1, 1), groups=64)\n",
      "        )\n",
      "        (fc_q): Linear(in_features=64, out_features=32, bias=True)\n",
      "        (fc_k): Linear(in_features=64, out_features=32, bias=True)\n",
      "        (fc_v): Linear(in_features=64, out_features=32, bias=True)\n",
      "        (fc_o): Linear(in_features=32, out_features=64, bias=True)\n",
      "      )\n",
      "      (irffn): IRFFN(\n",
      "        (conv1): Sequential(\n",
      "          (0): Conv2d(64, 256, kernel_size=(1, 1), stride=(1, 1))\n",
      "          (1): BatchNorm2d(256, eps=1e-05, momentum=0.1, affine=True, track_running_stats=True)\n",
      "          (2): GELU()\n",
      "        )\n",
      "        (dwconv): Sequential(\n",
      "          (0): DWCONV(\n",
      "            (depthwise): Conv2d(256, 256, kernel_size=(3, 3), stride=(1, 1), padding=(1, 1), groups=256)\n",
      "          )\n",
      "          (1): BatchNorm2d(256, eps=1e-05, momentum=0.1, affine=True, track_running_stats=True)\n",
      "          (2): GELU()\n",
      "        )\n",
      "        (conv2): Sequential(\n",
      "          (0): Conv2d(256, 64, kernel_size=(1, 1), stride=(1, 1))\n",
      "          (1): BatchNorm2d(64, eps=1e-05, momentum=0.1, affine=True, track_running_stats=True)\n",
      "        )\n",
      "      )\n",
      "    )\n",
      "    (2): CMTBlock(\n",
      "      (lpu): LPU(\n",
      "        (DWConv): DWCONV(\n",
      "          (depthwise): Conv2d(64, 64, kernel_size=(3, 3), stride=(1, 1), padding=(1, 1), groups=64)\n",
      "        )\n",
      "      )\n",
      "      (lmhsa): LMHSA(\n",
      "        (dwconv_k): DWCONV(\n",
      "          (depthwise): Conv2d(64, 64, kernel_size=(3, 3), stride=(8, 8), padding=(1, 1), groups=64)\n",
      "        )\n",
      "        (dwconv_v): DWCONV(\n",
      "          (depthwise): Conv2d(64, 64, kernel_size=(3, 3), stride=(8, 8), padding=(1, 1), groups=64)\n",
      "        )\n",
      "        (fc_q): Linear(in_features=64, out_features=32, bias=True)\n",
      "        (fc_k): Linear(in_features=64, out_features=32, bias=True)\n",
      "        (fc_v): Linear(in_features=64, out_features=32, bias=True)\n",
      "        (fc_o): Linear(in_features=32, out_features=64, bias=True)\n",
      "      )\n",
      "      (irffn): IRFFN(\n",
      "        (conv1): Sequential(\n",
      "          (0): Conv2d(64, 256, kernel_size=(1, 1), stride=(1, 1))\n",
      "          (1): BatchNorm2d(256, eps=1e-05, momentum=0.1, affine=True, track_running_stats=True)\n",
      "          (2): GELU()\n",
      "        )\n",
      "        (dwconv): Sequential(\n",
      "          (0): DWCONV(\n",
      "            (depthwise): Conv2d(256, 256, kernel_size=(3, 3), stride=(1, 1), padding=(1, 1), groups=256)\n",
      "          )\n",
      "          (1): BatchNorm2d(256, eps=1e-05, momentum=0.1, affine=True, track_running_stats=True)\n",
      "          (2): GELU()\n",
      "        )\n",
      "        (conv2): Sequential(\n",
      "          (0): Conv2d(256, 64, kernel_size=(1, 1), stride=(1, 1))\n",
      "          (1): BatchNorm2d(64, eps=1e-05, momentum=0.1, affine=True, track_running_stats=True)\n",
      "        )\n",
      "      )\n",
      "    )\n",
      "  )\n",
      "  (conv_block_1): ConvBlock(\n",
      "    (conv1): Conv2d(64, 64, kernel_size=(1, 1), stride=(1, 1))\n",
      "    (conv2): Conv2d(64, 64, kernel_size=(3, 3), stride=(1, 1), padding=(1, 1))\n",
      "    (relu): LeakyReLU(negative_slope=0.01)\n",
      "  )\n",
      "  (down_conv_1): DownsampleBlock(\n",
      "    (conv): Conv2d(64, 128, kernel_size=(2, 2), stride=(2, 2))\n",
      "  )\n",
      "  (cmt_stage_2): Sequential(\n",
      "    (0): CMTBlock(\n",
      "      (lpu): LPU(\n",
      "        (DWConv): DWCONV(\n",
      "          (depthwise): Conv2d(128, 128, kernel_size=(3, 3), stride=(1, 1), padding=(1, 1), groups=128)\n",
      "        )\n",
      "      )\n",
      "      (lmhsa): LMHSA(\n",
      "        (dwconv_k): DWCONV(\n",
      "          (depthwise): Conv2d(128, 128, kernel_size=(3, 3), stride=(4, 4), padding=(1, 1), groups=128)\n",
      "        )\n",
      "        (dwconv_v): DWCONV(\n",
      "          (depthwise): Conv2d(128, 128, kernel_size=(3, 3), stride=(4, 4), padding=(1, 1), groups=128)\n",
      "        )\n",
      "        (fc_q): Linear(in_features=128, out_features=64, bias=True)\n",
      "        (fc_k): Linear(in_features=128, out_features=64, bias=True)\n",
      "        (fc_v): Linear(in_features=128, out_features=64, bias=True)\n",
      "        (fc_o): Linear(in_features=64, out_features=128, bias=True)\n",
      "      )\n",
      "      (irffn): IRFFN(\n",
      "        (conv1): Sequential(\n",
      "          (0): Conv2d(128, 512, kernel_size=(1, 1), stride=(1, 1))\n",
      "          (1): BatchNorm2d(512, eps=1e-05, momentum=0.1, affine=True, track_running_stats=True)\n",
      "          (2): GELU()\n",
      "        )\n",
      "        (dwconv): Sequential(\n",
      "          (0): DWCONV(\n",
      "            (depthwise): Conv2d(512, 512, kernel_size=(3, 3), stride=(1, 1), padding=(1, 1), groups=512)\n",
      "          )\n",
      "          (1): BatchNorm2d(512, eps=1e-05, momentum=0.1, affine=True, track_running_stats=True)\n",
      "          (2): GELU()\n",
      "        )\n",
      "        (conv2): Sequential(\n",
      "          (0): Conv2d(512, 128, kernel_size=(1, 1), stride=(1, 1))\n",
      "          (1): BatchNorm2d(128, eps=1e-05, momentum=0.1, affine=True, track_running_stats=True)\n",
      "        )\n",
      "      )\n",
      "    )\n",
      "    (1): CMTBlock(\n",
      "      (lpu): LPU(\n",
      "        (DWConv): DWCONV(\n",
      "          (depthwise): Conv2d(128, 128, kernel_size=(3, 3), stride=(1, 1), padding=(1, 1), groups=128)\n",
      "        )\n",
      "      )\n",
      "      (lmhsa): LMHSA(\n",
      "        (dwconv_k): DWCONV(\n",
      "          (depthwise): Conv2d(128, 128, kernel_size=(3, 3), stride=(4, 4), padding=(1, 1), groups=128)\n",
      "        )\n",
      "        (dwconv_v): DWCONV(\n",
      "          (depthwise): Conv2d(128, 128, kernel_size=(3, 3), stride=(4, 4), padding=(1, 1), groups=128)\n",
      "        )\n",
      "        (fc_q): Linear(in_features=128, out_features=64, bias=True)\n",
      "        (fc_k): Linear(in_features=128, out_features=64, bias=True)\n",
      "        (fc_v): Linear(in_features=128, out_features=64, bias=True)\n",
      "        (fc_o): Linear(in_features=64, out_features=128, bias=True)\n",
      "      )\n",
      "      (irffn): IRFFN(\n",
      "        (conv1): Sequential(\n",
      "          (0): Conv2d(128, 512, kernel_size=(1, 1), stride=(1, 1))\n",
      "          (1): BatchNorm2d(512, eps=1e-05, momentum=0.1, affine=True, track_running_stats=True)\n",
      "          (2): GELU()\n",
      "        )\n",
      "        (dwconv): Sequential(\n",
      "          (0): DWCONV(\n",
      "            (depthwise): Conv2d(512, 512, kernel_size=(3, 3), stride=(1, 1), padding=(1, 1), groups=512)\n",
      "          )\n",
      "          (1): BatchNorm2d(512, eps=1e-05, momentum=0.1, affine=True, track_running_stats=True)\n",
      "          (2): GELU()\n",
      "        )\n",
      "        (conv2): Sequential(\n",
      "          (0): Conv2d(512, 128, kernel_size=(1, 1), stride=(1, 1))\n",
      "          (1): BatchNorm2d(128, eps=1e-05, momentum=0.1, affine=True, track_running_stats=True)\n",
      "        )\n",
      "      )\n",
      "    )\n",
      "    (2): CMTBlock(\n",
      "      (lpu): LPU(\n",
      "        (DWConv): DWCONV(\n",
      "          (depthwise): Conv2d(128, 128, kernel_size=(3, 3), stride=(1, 1), padding=(1, 1), groups=128)\n",
      "        )\n",
      "      )\n",
      "      (lmhsa): LMHSA(\n",
      "        (dwconv_k): DWCONV(\n",
      "          (depthwise): Conv2d(128, 128, kernel_size=(3, 3), stride=(4, 4), padding=(1, 1), groups=128)\n",
      "        )\n",
      "        (dwconv_v): DWCONV(\n",
      "          (depthwise): Conv2d(128, 128, kernel_size=(3, 3), stride=(4, 4), padding=(1, 1), groups=128)\n",
      "        )\n",
      "        (fc_q): Linear(in_features=128, out_features=64, bias=True)\n",
      "        (fc_k): Linear(in_features=128, out_features=64, bias=True)\n",
      "        (fc_v): Linear(in_features=128, out_features=64, bias=True)\n",
      "        (fc_o): Linear(in_features=64, out_features=128, bias=True)\n",
      "      )\n",
      "      (irffn): IRFFN(\n",
      "        (conv1): Sequential(\n",
      "          (0): Conv2d(128, 512, kernel_size=(1, 1), stride=(1, 1))\n",
      "          (1): BatchNorm2d(512, eps=1e-05, momentum=0.1, affine=True, track_running_stats=True)\n",
      "          (2): GELU()\n",
      "        )\n",
      "        (dwconv): Sequential(\n",
      "          (0): DWCONV(\n",
      "            (depthwise): Conv2d(512, 512, kernel_size=(3, 3), stride=(1, 1), padding=(1, 1), groups=512)\n",
      "          )\n",
      "          (1): BatchNorm2d(512, eps=1e-05, momentum=0.1, affine=True, track_running_stats=True)\n",
      "          (2): GELU()\n",
      "        )\n",
      "        (conv2): Sequential(\n",
      "          (0): Conv2d(512, 128, kernel_size=(1, 1), stride=(1, 1))\n",
      "          (1): BatchNorm2d(128, eps=1e-05, momentum=0.1, affine=True, track_running_stats=True)\n",
      "        )\n",
      "      )\n",
      "    )\n",
      "  )\n",
      "  (conv_block_2): ConvBlock(\n",
      "    (conv1): Conv2d(128, 128, kernel_size=(1, 1), stride=(1, 1))\n",
      "    (conv2): Conv2d(128, 128, kernel_size=(3, 3), stride=(1, 1), padding=(1, 1))\n",
      "    (relu): LeakyReLU(negative_slope=0.01)\n",
      "  )\n",
      "  (down_conv_2): DownsampleBlock(\n",
      "    (conv): Conv2d(128, 256, kernel_size=(2, 2), stride=(2, 2))\n",
      "  )\n",
      "  (cmt_stage_3): Sequential(\n",
      "    (0): CMTBlock(\n",
      "      (lpu): LPU(\n",
      "        (DWConv): DWCONV(\n",
      "          (depthwise): Conv2d(256, 256, kernel_size=(3, 3), stride=(1, 1), padding=(1, 1), groups=256)\n",
      "        )\n",
      "      )\n",
      "      (lmhsa): LMHSA(\n",
      "        (dwconv_k): DWCONV(\n",
      "          (depthwise): Conv2d(256, 256, kernel_size=(3, 3), stride=(2, 2), padding=(1, 1), groups=256)\n",
      "        )\n",
      "        (dwconv_v): DWCONV(\n",
      "          (depthwise): Conv2d(256, 256, kernel_size=(3, 3), stride=(2, 2), padding=(1, 1), groups=256)\n",
      "        )\n",
      "        (fc_q): Linear(in_features=256, out_features=128, bias=True)\n",
      "        (fc_k): Linear(in_features=256, out_features=128, bias=True)\n",
      "        (fc_v): Linear(in_features=256, out_features=128, bias=True)\n",
      "        (fc_o): Linear(in_features=128, out_features=256, bias=True)\n",
      "      )\n",
      "      (irffn): IRFFN(\n",
      "        (conv1): Sequential(\n",
      "          (0): Conv2d(256, 1024, kernel_size=(1, 1), stride=(1, 1))\n",
      "          (1): BatchNorm2d(1024, eps=1e-05, momentum=0.1, affine=True, track_running_stats=True)\n",
      "          (2): GELU()\n",
      "        )\n",
      "        (dwconv): Sequential(\n",
      "          (0): DWCONV(\n",
      "            (depthwise): Conv2d(1024, 1024, kernel_size=(3, 3), stride=(1, 1), padding=(1, 1), groups=1024)\n",
      "          )\n",
      "          (1): BatchNorm2d(1024, eps=1e-05, momentum=0.1, affine=True, track_running_stats=True)\n",
      "          (2): GELU()\n",
      "        )\n",
      "        (conv2): Sequential(\n",
      "          (0): Conv2d(1024, 256, kernel_size=(1, 1), stride=(1, 1))\n",
      "          (1): BatchNorm2d(256, eps=1e-05, momentum=0.1, affine=True, track_running_stats=True)\n",
      "        )\n",
      "      )\n",
      "    )\n",
      "    (1): CMTBlock(\n",
      "      (lpu): LPU(\n",
      "        (DWConv): DWCONV(\n",
      "          (depthwise): Conv2d(256, 256, kernel_size=(3, 3), stride=(1, 1), padding=(1, 1), groups=256)\n",
      "        )\n",
      "      )\n",
      "      (lmhsa): LMHSA(\n",
      "        (dwconv_k): DWCONV(\n",
      "          (depthwise): Conv2d(256, 256, kernel_size=(3, 3), stride=(2, 2), padding=(1, 1), groups=256)\n",
      "        )\n",
      "        (dwconv_v): DWCONV(\n",
      "          (depthwise): Conv2d(256, 256, kernel_size=(3, 3), stride=(2, 2), padding=(1, 1), groups=256)\n",
      "        )\n",
      "        (fc_q): Linear(in_features=256, out_features=128, bias=True)\n",
      "        (fc_k): Linear(in_features=256, out_features=128, bias=True)\n",
      "        (fc_v): Linear(in_features=256, out_features=128, bias=True)\n",
      "        (fc_o): Linear(in_features=128, out_features=256, bias=True)\n",
      "      )\n",
      "      (irffn): IRFFN(\n",
      "        (conv1): Sequential(\n",
      "          (0): Conv2d(256, 1024, kernel_size=(1, 1), stride=(1, 1))\n",
      "          (1): BatchNorm2d(1024, eps=1e-05, momentum=0.1, affine=True, track_running_stats=True)\n",
      "          (2): GELU()\n",
      "        )\n",
      "        (dwconv): Sequential(\n",
      "          (0): DWCONV(\n",
      "            (depthwise): Conv2d(1024, 1024, kernel_size=(3, 3), stride=(1, 1), padding=(1, 1), groups=1024)\n",
      "          )\n",
      "          (1): BatchNorm2d(1024, eps=1e-05, momentum=0.1, affine=True, track_running_stats=True)\n",
      "          (2): GELU()\n",
      "        )\n",
      "        (conv2): Sequential(\n",
      "          (0): Conv2d(1024, 256, kernel_size=(1, 1), stride=(1, 1))\n",
      "          (1): BatchNorm2d(256, eps=1e-05, momentum=0.1, affine=True, track_running_stats=True)\n",
      "        )\n",
      "      )\n",
      "    )\n",
      "    (2): CMTBlock(\n",
      "      (lpu): LPU(\n",
      "        (DWConv): DWCONV(\n",
      "          (depthwise): Conv2d(256, 256, kernel_size=(3, 3), stride=(1, 1), padding=(1, 1), groups=256)\n",
      "        )\n",
      "      )\n",
      "      (lmhsa): LMHSA(\n",
      "        (dwconv_k): DWCONV(\n",
      "          (depthwise): Conv2d(256, 256, kernel_size=(3, 3), stride=(2, 2), padding=(1, 1), groups=256)\n",
      "        )\n",
      "        (dwconv_v): DWCONV(\n",
      "          (depthwise): Conv2d(256, 256, kernel_size=(3, 3), stride=(2, 2), padding=(1, 1), groups=256)\n",
      "        )\n",
      "        (fc_q): Linear(in_features=256, out_features=128, bias=True)\n",
      "        (fc_k): Linear(in_features=256, out_features=128, bias=True)\n",
      "        (fc_v): Linear(in_features=256, out_features=128, bias=True)\n",
      "        (fc_o): Linear(in_features=128, out_features=256, bias=True)\n",
      "      )\n",
      "      (irffn): IRFFN(\n",
      "        (conv1): Sequential(\n",
      "          (0): Conv2d(256, 1024, kernel_size=(1, 1), stride=(1, 1))\n",
      "          (1): BatchNorm2d(1024, eps=1e-05, momentum=0.1, affine=True, track_running_stats=True)\n",
      "          (2): GELU()\n",
      "        )\n",
      "        (dwconv): Sequential(\n",
      "          (0): DWCONV(\n",
      "            (depthwise): Conv2d(1024, 1024, kernel_size=(3, 3), stride=(1, 1), padding=(1, 1), groups=1024)\n",
      "          )\n",
      "          (1): BatchNorm2d(1024, eps=1e-05, momentum=0.1, affine=True, track_running_stats=True)\n",
      "          (2): GELU()\n",
      "        )\n",
      "        (conv2): Sequential(\n",
      "          (0): Conv2d(1024, 256, kernel_size=(1, 1), stride=(1, 1))\n",
      "          (1): BatchNorm2d(256, eps=1e-05, momentum=0.1, affine=True, track_running_stats=True)\n",
      "        )\n",
      "      )\n",
      "    )\n",
      "    (3): CMTBlock(\n",
      "      (lpu): LPU(\n",
      "        (DWConv): DWCONV(\n",
      "          (depthwise): Conv2d(256, 256, kernel_size=(3, 3), stride=(1, 1), padding=(1, 1), groups=256)\n",
      "        )\n",
      "      )\n",
      "      (lmhsa): LMHSA(\n",
      "        (dwconv_k): DWCONV(\n",
      "          (depthwise): Conv2d(256, 256, kernel_size=(3, 3), stride=(2, 2), padding=(1, 1), groups=256)\n",
      "        )\n",
      "        (dwconv_v): DWCONV(\n",
      "          (depthwise): Conv2d(256, 256, kernel_size=(3, 3), stride=(2, 2), padding=(1, 1), groups=256)\n",
      "        )\n",
      "        (fc_q): Linear(in_features=256, out_features=128, bias=True)\n",
      "        (fc_k): Linear(in_features=256, out_features=128, bias=True)\n",
      "        (fc_v): Linear(in_features=256, out_features=128, bias=True)\n",
      "        (fc_o): Linear(in_features=128, out_features=256, bias=True)\n",
      "      )\n",
      "      (irffn): IRFFN(\n",
      "        (conv1): Sequential(\n",
      "          (0): Conv2d(256, 1024, kernel_size=(1, 1), stride=(1, 1))\n",
      "          (1): BatchNorm2d(1024, eps=1e-05, momentum=0.1, affine=True, track_running_stats=True)\n",
      "          (2): GELU()\n",
      "        )\n",
      "        (dwconv): Sequential(\n",
      "          (0): DWCONV(\n",
      "            (depthwise): Conv2d(1024, 1024, kernel_size=(3, 3), stride=(1, 1), padding=(1, 1), groups=1024)\n",
      "          )\n",
      "          (1): BatchNorm2d(1024, eps=1e-05, momentum=0.1, affine=True, track_running_stats=True)\n",
      "          (2): GELU()\n",
      "        )\n",
      "        (conv2): Sequential(\n",
      "          (0): Conv2d(1024, 256, kernel_size=(1, 1), stride=(1, 1))\n",
      "          (1): BatchNorm2d(256, eps=1e-05, momentum=0.1, affine=True, track_running_stats=True)\n",
      "        )\n",
      "      )\n",
      "    )\n",
      "    (4): CMTBlock(\n",
      "      (lpu): LPU(\n",
      "        (DWConv): DWCONV(\n",
      "          (depthwise): Conv2d(256, 256, kernel_size=(3, 3), stride=(1, 1), padding=(1, 1), groups=256)\n",
      "        )\n",
      "      )\n",
      "      (lmhsa): LMHSA(\n",
      "        (dwconv_k): DWCONV(\n",
      "          (depthwise): Conv2d(256, 256, kernel_size=(3, 3), stride=(2, 2), padding=(1, 1), groups=256)\n",
      "        )\n",
      "        (dwconv_v): DWCONV(\n",
      "          (depthwise): Conv2d(256, 256, kernel_size=(3, 3), stride=(2, 2), padding=(1, 1), groups=256)\n",
      "        )\n",
      "        (fc_q): Linear(in_features=256, out_features=128, bias=True)\n",
      "        (fc_k): Linear(in_features=256, out_features=128, bias=True)\n",
      "        (fc_v): Linear(in_features=256, out_features=128, bias=True)\n",
      "        (fc_o): Linear(in_features=128, out_features=256, bias=True)\n",
      "      )\n",
      "      (irffn): IRFFN(\n",
      "        (conv1): Sequential(\n",
      "          (0): Conv2d(256, 1024, kernel_size=(1, 1), stride=(1, 1))\n",
      "          (1): BatchNorm2d(1024, eps=1e-05, momentum=0.1, affine=True, track_running_stats=True)\n",
      "          (2): GELU()\n",
      "        )\n",
      "        (dwconv): Sequential(\n",
      "          (0): DWCONV(\n",
      "            (depthwise): Conv2d(1024, 1024, kernel_size=(3, 3), stride=(1, 1), padding=(1, 1), groups=1024)\n",
      "          )\n",
      "          (1): BatchNorm2d(1024, eps=1e-05, momentum=0.1, affine=True, track_running_stats=True)\n",
      "          (2): GELU()\n",
      "        )\n",
      "        (conv2): Sequential(\n",
      "          (0): Conv2d(1024, 256, kernel_size=(1, 1), stride=(1, 1))\n",
      "          (1): BatchNorm2d(256, eps=1e-05, momentum=0.1, affine=True, track_running_stats=True)\n",
      "        )\n",
      "      )\n",
      "    )\n",
      "    (5): CMTBlock(\n",
      "      (lpu): LPU(\n",
      "        (DWConv): DWCONV(\n",
      "          (depthwise): Conv2d(256, 256, kernel_size=(3, 3), stride=(1, 1), padding=(1, 1), groups=256)\n",
      "        )\n",
      "      )\n",
      "      (lmhsa): LMHSA(\n",
      "        (dwconv_k): DWCONV(\n",
      "          (depthwise): Conv2d(256, 256, kernel_size=(3, 3), stride=(2, 2), padding=(1, 1), groups=256)\n",
      "        )\n",
      "        (dwconv_v): DWCONV(\n",
      "          (depthwise): Conv2d(256, 256, kernel_size=(3, 3), stride=(2, 2), padding=(1, 1), groups=256)\n",
      "        )\n",
      "        (fc_q): Linear(in_features=256, out_features=128, bias=True)\n",
      "        (fc_k): Linear(in_features=256, out_features=128, bias=True)\n",
      "        (fc_v): Linear(in_features=256, out_features=128, bias=True)\n",
      "        (fc_o): Linear(in_features=128, out_features=256, bias=True)\n",
      "      )\n",
      "      (irffn): IRFFN(\n",
      "        (conv1): Sequential(\n",
      "          (0): Conv2d(256, 1024, kernel_size=(1, 1), stride=(1, 1))\n",
      "          (1): BatchNorm2d(1024, eps=1e-05, momentum=0.1, affine=True, track_running_stats=True)\n",
      "          (2): GELU()\n",
      "        )\n",
      "        (dwconv): Sequential(\n",
      "          (0): DWCONV(\n",
      "            (depthwise): Conv2d(1024, 1024, kernel_size=(3, 3), stride=(1, 1), padding=(1, 1), groups=1024)\n",
      "          )\n",
      "          (1): BatchNorm2d(1024, eps=1e-05, momentum=0.1, affine=True, track_running_stats=True)\n",
      "          (2): GELU()\n",
      "        )\n",
      "        (conv2): Sequential(\n",
      "          (0): Conv2d(1024, 256, kernel_size=(1, 1), stride=(1, 1))\n",
      "          (1): BatchNorm2d(256, eps=1e-05, momentum=0.1, affine=True, track_running_stats=True)\n",
      "        )\n",
      "      )\n",
      "    )\n",
      "    (6): CMTBlock(\n",
      "      (lpu): LPU(\n",
      "        (DWConv): DWCONV(\n",
      "          (depthwise): Conv2d(256, 256, kernel_size=(3, 3), stride=(1, 1), padding=(1, 1), groups=256)\n",
      "        )\n",
      "      )\n",
      "      (lmhsa): LMHSA(\n",
      "        (dwconv_k): DWCONV(\n",
      "          (depthwise): Conv2d(256, 256, kernel_size=(3, 3), stride=(2, 2), padding=(1, 1), groups=256)\n",
      "        )\n",
      "        (dwconv_v): DWCONV(\n",
      "          (depthwise): Conv2d(256, 256, kernel_size=(3, 3), stride=(2, 2), padding=(1, 1), groups=256)\n",
      "        )\n",
      "        (fc_q): Linear(in_features=256, out_features=128, bias=True)\n",
      "        (fc_k): Linear(in_features=256, out_features=128, bias=True)\n",
      "        (fc_v): Linear(in_features=256, out_features=128, bias=True)\n",
      "        (fc_o): Linear(in_features=128, out_features=256, bias=True)\n",
      "      )\n",
      "      (irffn): IRFFN(\n",
      "        (conv1): Sequential(\n",
      "          (0): Conv2d(256, 1024, kernel_size=(1, 1), stride=(1, 1))\n",
      "          (1): BatchNorm2d(1024, eps=1e-05, momentum=0.1, affine=True, track_running_stats=True)\n",
      "          (2): GELU()\n",
      "        )\n",
      "        (dwconv): Sequential(\n",
      "          (0): DWCONV(\n",
      "            (depthwise): Conv2d(1024, 1024, kernel_size=(3, 3), stride=(1, 1), padding=(1, 1), groups=1024)\n",
      "          )\n",
      "          (1): BatchNorm2d(1024, eps=1e-05, momentum=0.1, affine=True, track_running_stats=True)\n",
      "          (2): GELU()\n",
      "        )\n",
      "        (conv2): Sequential(\n",
      "          (0): Conv2d(1024, 256, kernel_size=(1, 1), stride=(1, 1))\n",
      "          (1): BatchNorm2d(256, eps=1e-05, momentum=0.1, affine=True, track_running_stats=True)\n",
      "        )\n",
      "      )\n",
      "    )\n",
      "    (7): CMTBlock(\n",
      "      (lpu): LPU(\n",
      "        (DWConv): DWCONV(\n",
      "          (depthwise): Conv2d(256, 256, kernel_size=(3, 3), stride=(1, 1), padding=(1, 1), groups=256)\n",
      "        )\n",
      "      )\n",
      "      (lmhsa): LMHSA(\n",
      "        (dwconv_k): DWCONV(\n",
      "          (depthwise): Conv2d(256, 256, kernel_size=(3, 3), stride=(2, 2), padding=(1, 1), groups=256)\n",
      "        )\n",
      "        (dwconv_v): DWCONV(\n",
      "          (depthwise): Conv2d(256, 256, kernel_size=(3, 3), stride=(2, 2), padding=(1, 1), groups=256)\n",
      "        )\n",
      "        (fc_q): Linear(in_features=256, out_features=128, bias=True)\n",
      "        (fc_k): Linear(in_features=256, out_features=128, bias=True)\n",
      "        (fc_v): Linear(in_features=256, out_features=128, bias=True)\n",
      "        (fc_o): Linear(in_features=128, out_features=256, bias=True)\n",
      "      )\n",
      "      (irffn): IRFFN(\n",
      "        (conv1): Sequential(\n",
      "          (0): Conv2d(256, 1024, kernel_size=(1, 1), stride=(1, 1))\n",
      "          (1): BatchNorm2d(1024, eps=1e-05, momentum=0.1, affine=True, track_running_stats=True)\n",
      "          (2): GELU()\n",
      "        )\n",
      "        (dwconv): Sequential(\n",
      "          (0): DWCONV(\n",
      "            (depthwise): Conv2d(1024, 1024, kernel_size=(3, 3), stride=(1, 1), padding=(1, 1), groups=1024)\n",
      "          )\n",
      "          (1): BatchNorm2d(1024, eps=1e-05, momentum=0.1, affine=True, track_running_stats=True)\n",
      "          (2): GELU()\n",
      "        )\n",
      "        (conv2): Sequential(\n",
      "          (0): Conv2d(1024, 256, kernel_size=(1, 1), stride=(1, 1))\n",
      "          (1): BatchNorm2d(256, eps=1e-05, momentum=0.1, affine=True, track_running_stats=True)\n",
      "        )\n",
      "      )\n",
      "    )\n",
      "    (8): CMTBlock(\n",
      "      (lpu): LPU(\n",
      "        (DWConv): DWCONV(\n",
      "          (depthwise): Conv2d(256, 256, kernel_size=(3, 3), stride=(1, 1), padding=(1, 1), groups=256)\n",
      "        )\n",
      "      )\n",
      "      (lmhsa): LMHSA(\n",
      "        (dwconv_k): DWCONV(\n",
      "          (depthwise): Conv2d(256, 256, kernel_size=(3, 3), stride=(2, 2), padding=(1, 1), groups=256)\n",
      "        )\n",
      "        (dwconv_v): DWCONV(\n",
      "          (depthwise): Conv2d(256, 256, kernel_size=(3, 3), stride=(2, 2), padding=(1, 1), groups=256)\n",
      "        )\n",
      "        (fc_q): Linear(in_features=256, out_features=128, bias=True)\n",
      "        (fc_k): Linear(in_features=256, out_features=128, bias=True)\n",
      "        (fc_v): Linear(in_features=256, out_features=128, bias=True)\n",
      "        (fc_o): Linear(in_features=128, out_features=256, bias=True)\n",
      "      )\n",
      "      (irffn): IRFFN(\n",
      "        (conv1): Sequential(\n",
      "          (0): Conv2d(256, 1024, kernel_size=(1, 1), stride=(1, 1))\n",
      "          (1): BatchNorm2d(1024, eps=1e-05, momentum=0.1, affine=True, track_running_stats=True)\n",
      "          (2): GELU()\n",
      "        )\n",
      "        (dwconv): Sequential(\n",
      "          (0): DWCONV(\n",
      "            (depthwise): Conv2d(1024, 1024, kernel_size=(3, 3), stride=(1, 1), padding=(1, 1), groups=1024)\n",
      "          )\n",
      "          (1): BatchNorm2d(1024, eps=1e-05, momentum=0.1, affine=True, track_running_stats=True)\n",
      "          (2): GELU()\n",
      "        )\n",
      "        (conv2): Sequential(\n",
      "          (0): Conv2d(1024, 256, kernel_size=(1, 1), stride=(1, 1))\n",
      "          (1): BatchNorm2d(256, eps=1e-05, momentum=0.1, affine=True, track_running_stats=True)\n",
      "        )\n",
      "      )\n",
      "    )\n",
      "    (9): CMTBlock(\n",
      "      (lpu): LPU(\n",
      "        (DWConv): DWCONV(\n",
      "          (depthwise): Conv2d(256, 256, kernel_size=(3, 3), stride=(1, 1), padding=(1, 1), groups=256)\n",
      "        )\n",
      "      )\n",
      "      (lmhsa): LMHSA(\n",
      "        (dwconv_k): DWCONV(\n",
      "          (depthwise): Conv2d(256, 256, kernel_size=(3, 3), stride=(2, 2), padding=(1, 1), groups=256)\n",
      "        )\n",
      "        (dwconv_v): DWCONV(\n",
      "          (depthwise): Conv2d(256, 256, kernel_size=(3, 3), stride=(2, 2), padding=(1, 1), groups=256)\n",
      "        )\n",
      "        (fc_q): Linear(in_features=256, out_features=128, bias=True)\n",
      "        (fc_k): Linear(in_features=256, out_features=128, bias=True)\n",
      "        (fc_v): Linear(in_features=256, out_features=128, bias=True)\n",
      "        (fc_o): Linear(in_features=128, out_features=256, bias=True)\n",
      "      )\n",
      "      (irffn): IRFFN(\n",
      "        (conv1): Sequential(\n",
      "          (0): Conv2d(256, 1024, kernel_size=(1, 1), stride=(1, 1))\n",
      "          (1): BatchNorm2d(1024, eps=1e-05, momentum=0.1, affine=True, track_running_stats=True)\n",
      "          (2): GELU()\n",
      "        )\n",
      "        (dwconv): Sequential(\n",
      "          (0): DWCONV(\n",
      "            (depthwise): Conv2d(1024, 1024, kernel_size=(3, 3), stride=(1, 1), padding=(1, 1), groups=1024)\n",
      "          )\n",
      "          (1): BatchNorm2d(1024, eps=1e-05, momentum=0.1, affine=True, track_running_stats=True)\n",
      "          (2): GELU()\n",
      "        )\n",
      "        (conv2): Sequential(\n",
      "          (0): Conv2d(1024, 256, kernel_size=(1, 1), stride=(1, 1))\n",
      "          (1): BatchNorm2d(256, eps=1e-05, momentum=0.1, affine=True, track_running_stats=True)\n",
      "        )\n",
      "      )\n",
      "    )\n",
      "    (10): CMTBlock(\n",
      "      (lpu): LPU(\n",
      "        (DWConv): DWCONV(\n",
      "          (depthwise): Conv2d(256, 256, kernel_size=(3, 3), stride=(1, 1), padding=(1, 1), groups=256)\n",
      "        )\n",
      "      )\n",
      "      (lmhsa): LMHSA(\n",
      "        (dwconv_k): DWCONV(\n",
      "          (depthwise): Conv2d(256, 256, kernel_size=(3, 3), stride=(2, 2), padding=(1, 1), groups=256)\n",
      "        )\n",
      "        (dwconv_v): DWCONV(\n",
      "          (depthwise): Conv2d(256, 256, kernel_size=(3, 3), stride=(2, 2), padding=(1, 1), groups=256)\n",
      "        )\n",
      "        (fc_q): Linear(in_features=256, out_features=128, bias=True)\n",
      "        (fc_k): Linear(in_features=256, out_features=128, bias=True)\n",
      "        (fc_v): Linear(in_features=256, out_features=128, bias=True)\n",
      "        (fc_o): Linear(in_features=128, out_features=256, bias=True)\n",
      "      )\n",
      "      (irffn): IRFFN(\n",
      "        (conv1): Sequential(\n",
      "          (0): Conv2d(256, 1024, kernel_size=(1, 1), stride=(1, 1))\n",
      "          (1): BatchNorm2d(1024, eps=1e-05, momentum=0.1, affine=True, track_running_stats=True)\n",
      "          (2): GELU()\n",
      "        )\n",
      "        (dwconv): Sequential(\n",
      "          (0): DWCONV(\n",
      "            (depthwise): Conv2d(1024, 1024, kernel_size=(3, 3), stride=(1, 1), padding=(1, 1), groups=1024)\n",
      "          )\n",
      "          (1): BatchNorm2d(1024, eps=1e-05, momentum=0.1, affine=True, track_running_stats=True)\n",
      "          (2): GELU()\n",
      "        )\n",
      "        (conv2): Sequential(\n",
      "          (0): Conv2d(1024, 256, kernel_size=(1, 1), stride=(1, 1))\n",
      "          (1): BatchNorm2d(256, eps=1e-05, momentum=0.1, affine=True, track_running_stats=True)\n",
      "        )\n",
      "      )\n",
      "    )\n",
      "    (11): CMTBlock(\n",
      "      (lpu): LPU(\n",
      "        (DWConv): DWCONV(\n",
      "          (depthwise): Conv2d(256, 256, kernel_size=(3, 3), stride=(1, 1), padding=(1, 1), groups=256)\n",
      "        )\n",
      "      )\n",
      "      (lmhsa): LMHSA(\n",
      "        (dwconv_k): DWCONV(\n",
      "          (depthwise): Conv2d(256, 256, kernel_size=(3, 3), stride=(2, 2), padding=(1, 1), groups=256)\n",
      "        )\n",
      "        (dwconv_v): DWCONV(\n",
      "          (depthwise): Conv2d(256, 256, kernel_size=(3, 3), stride=(2, 2), padding=(1, 1), groups=256)\n",
      "        )\n",
      "        (fc_q): Linear(in_features=256, out_features=128, bias=True)\n",
      "        (fc_k): Linear(in_features=256, out_features=128, bias=True)\n",
      "        (fc_v): Linear(in_features=256, out_features=128, bias=True)\n",
      "        (fc_o): Linear(in_features=128, out_features=256, bias=True)\n",
      "      )\n",
      "      (irffn): IRFFN(\n",
      "        (conv1): Sequential(\n",
      "          (0): Conv2d(256, 1024, kernel_size=(1, 1), stride=(1, 1))\n",
      "          (1): BatchNorm2d(1024, eps=1e-05, momentum=0.1, affine=True, track_running_stats=True)\n",
      "          (2): GELU()\n",
      "        )\n",
      "        (dwconv): Sequential(\n",
      "          (0): DWCONV(\n",
      "            (depthwise): Conv2d(1024, 1024, kernel_size=(3, 3), stride=(1, 1), padding=(1, 1), groups=1024)\n",
      "          )\n",
      "          (1): BatchNorm2d(1024, eps=1e-05, momentum=0.1, affine=True, track_running_stats=True)\n",
      "          (2): GELU()\n",
      "        )\n",
      "        (conv2): Sequential(\n",
      "          (0): Conv2d(1024, 256, kernel_size=(1, 1), stride=(1, 1))\n",
      "          (1): BatchNorm2d(256, eps=1e-05, momentum=0.1, affine=True, track_running_stats=True)\n",
      "        )\n",
      "      )\n",
      "    )\n",
      "    (12): CMTBlock(\n",
      "      (lpu): LPU(\n",
      "        (DWConv): DWCONV(\n",
      "          (depthwise): Conv2d(256, 256, kernel_size=(3, 3), stride=(1, 1), padding=(1, 1), groups=256)\n",
      "        )\n",
      "      )\n",
      "      (lmhsa): LMHSA(\n",
      "        (dwconv_k): DWCONV(\n",
      "          (depthwise): Conv2d(256, 256, kernel_size=(3, 3), stride=(2, 2), padding=(1, 1), groups=256)\n",
      "        )\n",
      "        (dwconv_v): DWCONV(\n",
      "          (depthwise): Conv2d(256, 256, kernel_size=(3, 3), stride=(2, 2), padding=(1, 1), groups=256)\n",
      "        )\n",
      "        (fc_q): Linear(in_features=256, out_features=128, bias=True)\n",
      "        (fc_k): Linear(in_features=256, out_features=128, bias=True)\n",
      "        (fc_v): Linear(in_features=256, out_features=128, bias=True)\n",
      "        (fc_o): Linear(in_features=128, out_features=256, bias=True)\n",
      "      )\n",
      "      (irffn): IRFFN(\n",
      "        (conv1): Sequential(\n",
      "          (0): Conv2d(256, 1024, kernel_size=(1, 1), stride=(1, 1))\n",
      "          (1): BatchNorm2d(1024, eps=1e-05, momentum=0.1, affine=True, track_running_stats=True)\n",
      "          (2): GELU()\n",
      "        )\n",
      "        (dwconv): Sequential(\n",
      "          (0): DWCONV(\n",
      "            (depthwise): Conv2d(1024, 1024, kernel_size=(3, 3), stride=(1, 1), padding=(1, 1), groups=1024)\n",
      "          )\n",
      "          (1): BatchNorm2d(1024, eps=1e-05, momentum=0.1, affine=True, track_running_stats=True)\n",
      "          (2): GELU()\n",
      "        )\n",
      "        (conv2): Sequential(\n",
      "          (0): Conv2d(1024, 256, kernel_size=(1, 1), stride=(1, 1))\n",
      "          (1): BatchNorm2d(256, eps=1e-05, momentum=0.1, affine=True, track_running_stats=True)\n",
      "        )\n",
      "      )\n",
      "    )\n",
      "    (13): CMTBlock(\n",
      "      (lpu): LPU(\n",
      "        (DWConv): DWCONV(\n",
      "          (depthwise): Conv2d(256, 256, kernel_size=(3, 3), stride=(1, 1), padding=(1, 1), groups=256)\n",
      "        )\n",
      "      )\n",
      "      (lmhsa): LMHSA(\n",
      "        (dwconv_k): DWCONV(\n",
      "          (depthwise): Conv2d(256, 256, kernel_size=(3, 3), stride=(2, 2), padding=(1, 1), groups=256)\n",
      "        )\n",
      "        (dwconv_v): DWCONV(\n",
      "          (depthwise): Conv2d(256, 256, kernel_size=(3, 3), stride=(2, 2), padding=(1, 1), groups=256)\n",
      "        )\n",
      "        (fc_q): Linear(in_features=256, out_features=128, bias=True)\n",
      "        (fc_k): Linear(in_features=256, out_features=128, bias=True)\n",
      "        (fc_v): Linear(in_features=256, out_features=128, bias=True)\n",
      "        (fc_o): Linear(in_features=128, out_features=256, bias=True)\n",
      "      )\n",
      "      (irffn): IRFFN(\n",
      "        (conv1): Sequential(\n",
      "          (0): Conv2d(256, 1024, kernel_size=(1, 1), stride=(1, 1))\n",
      "          (1): BatchNorm2d(1024, eps=1e-05, momentum=0.1, affine=True, track_running_stats=True)\n",
      "          (2): GELU()\n",
      "        )\n",
      "        (dwconv): Sequential(\n",
      "          (0): DWCONV(\n",
      "            (depthwise): Conv2d(1024, 1024, kernel_size=(3, 3), stride=(1, 1), padding=(1, 1), groups=1024)\n",
      "          )\n",
      "          (1): BatchNorm2d(1024, eps=1e-05, momentum=0.1, affine=True, track_running_stats=True)\n",
      "          (2): GELU()\n",
      "        )\n",
      "        (conv2): Sequential(\n",
      "          (0): Conv2d(1024, 256, kernel_size=(1, 1), stride=(1, 1))\n",
      "          (1): BatchNorm2d(256, eps=1e-05, momentum=0.1, affine=True, track_running_stats=True)\n",
      "        )\n",
      "      )\n",
      "    )\n",
      "    (14): CMTBlock(\n",
      "      (lpu): LPU(\n",
      "        (DWConv): DWCONV(\n",
      "          (depthwise): Conv2d(256, 256, kernel_size=(3, 3), stride=(1, 1), padding=(1, 1), groups=256)\n",
      "        )\n",
      "      )\n",
      "      (lmhsa): LMHSA(\n",
      "        (dwconv_k): DWCONV(\n",
      "          (depthwise): Conv2d(256, 256, kernel_size=(3, 3), stride=(2, 2), padding=(1, 1), groups=256)\n",
      "        )\n",
      "        (dwconv_v): DWCONV(\n",
      "          (depthwise): Conv2d(256, 256, kernel_size=(3, 3), stride=(2, 2), padding=(1, 1), groups=256)\n",
      "        )\n",
      "        (fc_q): Linear(in_features=256, out_features=128, bias=True)\n",
      "        (fc_k): Linear(in_features=256, out_features=128, bias=True)\n",
      "        (fc_v): Linear(in_features=256, out_features=128, bias=True)\n",
      "        (fc_o): Linear(in_features=128, out_features=256, bias=True)\n",
      "      )\n",
      "      (irffn): IRFFN(\n",
      "        (conv1): Sequential(\n",
      "          (0): Conv2d(256, 1024, kernel_size=(1, 1), stride=(1, 1))\n",
      "          (1): BatchNorm2d(1024, eps=1e-05, momentum=0.1, affine=True, track_running_stats=True)\n",
      "          (2): GELU()\n",
      "        )\n",
      "        (dwconv): Sequential(\n",
      "          (0): DWCONV(\n",
      "            (depthwise): Conv2d(1024, 1024, kernel_size=(3, 3), stride=(1, 1), padding=(1, 1), groups=1024)\n",
      "          )\n",
      "          (1): BatchNorm2d(1024, eps=1e-05, momentum=0.1, affine=True, track_running_stats=True)\n",
      "          (2): GELU()\n",
      "        )\n",
      "        (conv2): Sequential(\n",
      "          (0): Conv2d(1024, 256, kernel_size=(1, 1), stride=(1, 1))\n",
      "          (1): BatchNorm2d(256, eps=1e-05, momentum=0.1, affine=True, track_running_stats=True)\n",
      "        )\n",
      "      )\n",
      "    )\n",
      "    (15): CMTBlock(\n",
      "      (lpu): LPU(\n",
      "        (DWConv): DWCONV(\n",
      "          (depthwise): Conv2d(256, 256, kernel_size=(3, 3), stride=(1, 1), padding=(1, 1), groups=256)\n",
      "        )\n",
      "      )\n",
      "      (lmhsa): LMHSA(\n",
      "        (dwconv_k): DWCONV(\n",
      "          (depthwise): Conv2d(256, 256, kernel_size=(3, 3), stride=(2, 2), padding=(1, 1), groups=256)\n",
      "        )\n",
      "        (dwconv_v): DWCONV(\n",
      "          (depthwise): Conv2d(256, 256, kernel_size=(3, 3), stride=(2, 2), padding=(1, 1), groups=256)\n",
      "        )\n",
      "        (fc_q): Linear(in_features=256, out_features=128, bias=True)\n",
      "        (fc_k): Linear(in_features=256, out_features=128, bias=True)\n",
      "        (fc_v): Linear(in_features=256, out_features=128, bias=True)\n",
      "        (fc_o): Linear(in_features=128, out_features=256, bias=True)\n",
      "      )\n",
      "      (irffn): IRFFN(\n",
      "        (conv1): Sequential(\n",
      "          (0): Conv2d(256, 1024, kernel_size=(1, 1), stride=(1, 1))\n",
      "          (1): BatchNorm2d(1024, eps=1e-05, momentum=0.1, affine=True, track_running_stats=True)\n",
      "          (2): GELU()\n",
      "        )\n",
      "        (dwconv): Sequential(\n",
      "          (0): DWCONV(\n",
      "            (depthwise): Conv2d(1024, 1024, kernel_size=(3, 3), stride=(1, 1), padding=(1, 1), groups=1024)\n",
      "          )\n",
      "          (1): BatchNorm2d(1024, eps=1e-05, momentum=0.1, affine=True, track_running_stats=True)\n",
      "          (2): GELU()\n",
      "        )\n",
      "        (conv2): Sequential(\n",
      "          (0): Conv2d(1024, 256, kernel_size=(1, 1), stride=(1, 1))\n",
      "          (1): BatchNorm2d(256, eps=1e-05, momentum=0.1, affine=True, track_running_stats=True)\n",
      "        )\n",
      "      )\n",
      "    )\n",
      "  )\n",
      "  (conv_block_3): ConvBlock(\n",
      "    (conv1): Conv2d(256, 256, kernel_size=(1, 1), stride=(1, 1))\n",
      "    (conv2): Conv2d(256, 256, kernel_size=(3, 3), stride=(1, 1), padding=(1, 1))\n",
      "    (relu): LeakyReLU(negative_slope=0.01)\n",
      "  )\n",
      "  (down_conv_3): DownsampleBlock(\n",
      "    (conv): Conv2d(256, 512, kernel_size=(2, 2), stride=(2, 2))\n",
      "  )\n",
      "  (cmt_stage_4): Sequential(\n",
      "    (0): CMTBlock(\n",
      "      (lpu): LPU(\n",
      "        (DWConv): DWCONV(\n",
      "          (depthwise): Conv2d(512, 512, kernel_size=(3, 3), stride=(1, 1), padding=(1, 1), groups=512)\n",
      "        )\n",
      "      )\n",
      "      (lmhsa): LMHSA(\n",
      "        (dwconv_k): DWCONV(\n",
      "          (depthwise): Conv2d(512, 512, kernel_size=(3, 3), stride=(1, 1), padding=(1, 1), groups=512)\n",
      "        )\n",
      "        (dwconv_v): DWCONV(\n",
      "          (depthwise): Conv2d(512, 512, kernel_size=(3, 3), stride=(1, 1), padding=(1, 1), groups=512)\n",
      "        )\n",
      "        (fc_q): Linear(in_features=512, out_features=256, bias=True)\n",
      "        (fc_k): Linear(in_features=512, out_features=256, bias=True)\n",
      "        (fc_v): Linear(in_features=512, out_features=256, bias=True)\n",
      "        (fc_o): Linear(in_features=256, out_features=512, bias=True)\n",
      "      )\n",
      "      (irffn): IRFFN(\n",
      "        (conv1): Sequential(\n",
      "          (0): Conv2d(512, 2048, kernel_size=(1, 1), stride=(1, 1))\n",
      "          (1): BatchNorm2d(2048, eps=1e-05, momentum=0.1, affine=True, track_running_stats=True)\n",
      "          (2): GELU()\n",
      "        )\n",
      "        (dwconv): Sequential(\n",
      "          (0): DWCONV(\n",
      "            (depthwise): Conv2d(2048, 2048, kernel_size=(3, 3), stride=(1, 1), padding=(1, 1), groups=2048)\n",
      "          )\n",
      "          (1): BatchNorm2d(2048, eps=1e-05, momentum=0.1, affine=True, track_running_stats=True)\n",
      "          (2): GELU()\n",
      "        )\n",
      "        (conv2): Sequential(\n",
      "          (0): Conv2d(2048, 512, kernel_size=(1, 1), stride=(1, 1))\n",
      "          (1): BatchNorm2d(512, eps=1e-05, momentum=0.1, affine=True, track_running_stats=True)\n",
      "        )\n",
      "      )\n",
      "    )\n",
      "    (1): CMTBlock(\n",
      "      (lpu): LPU(\n",
      "        (DWConv): DWCONV(\n",
      "          (depthwise): Conv2d(512, 512, kernel_size=(3, 3), stride=(1, 1), padding=(1, 1), groups=512)\n",
      "        )\n",
      "      )\n",
      "      (lmhsa): LMHSA(\n",
      "        (dwconv_k): DWCONV(\n",
      "          (depthwise): Conv2d(512, 512, kernel_size=(3, 3), stride=(1, 1), padding=(1, 1), groups=512)\n",
      "        )\n",
      "        (dwconv_v): DWCONV(\n",
      "          (depthwise): Conv2d(512, 512, kernel_size=(3, 3), stride=(1, 1), padding=(1, 1), groups=512)\n",
      "        )\n",
      "        (fc_q): Linear(in_features=512, out_features=256, bias=True)\n",
      "        (fc_k): Linear(in_features=512, out_features=256, bias=True)\n",
      "        (fc_v): Linear(in_features=512, out_features=256, bias=True)\n",
      "        (fc_o): Linear(in_features=256, out_features=512, bias=True)\n",
      "      )\n",
      "      (irffn): IRFFN(\n",
      "        (conv1): Sequential(\n",
      "          (0): Conv2d(512, 2048, kernel_size=(1, 1), stride=(1, 1))\n",
      "          (1): BatchNorm2d(2048, eps=1e-05, momentum=0.1, affine=True, track_running_stats=True)\n",
      "          (2): GELU()\n",
      "        )\n",
      "        (dwconv): Sequential(\n",
      "          (0): DWCONV(\n",
      "            (depthwise): Conv2d(2048, 2048, kernel_size=(3, 3), stride=(1, 1), padding=(1, 1), groups=2048)\n",
      "          )\n",
      "          (1): BatchNorm2d(2048, eps=1e-05, momentum=0.1, affine=True, track_running_stats=True)\n",
      "          (2): GELU()\n",
      "        )\n",
      "        (conv2): Sequential(\n",
      "          (0): Conv2d(2048, 512, kernel_size=(1, 1), stride=(1, 1))\n",
      "          (1): BatchNorm2d(512, eps=1e-05, momentum=0.1, affine=True, track_running_stats=True)\n",
      "        )\n",
      "      )\n",
      "    )\n",
      "    (2): CMTBlock(\n",
      "      (lpu): LPU(\n",
      "        (DWConv): DWCONV(\n",
      "          (depthwise): Conv2d(512, 512, kernel_size=(3, 3), stride=(1, 1), padding=(1, 1), groups=512)\n",
      "        )\n",
      "      )\n",
      "      (lmhsa): LMHSA(\n",
      "        (dwconv_k): DWCONV(\n",
      "          (depthwise): Conv2d(512, 512, kernel_size=(3, 3), stride=(1, 1), padding=(1, 1), groups=512)\n",
      "        )\n",
      "        (dwconv_v): DWCONV(\n",
      "          (depthwise): Conv2d(512, 512, kernel_size=(3, 3), stride=(1, 1), padding=(1, 1), groups=512)\n",
      "        )\n",
      "        (fc_q): Linear(in_features=512, out_features=256, bias=True)\n",
      "        (fc_k): Linear(in_features=512, out_features=256, bias=True)\n",
      "        (fc_v): Linear(in_features=512, out_features=256, bias=True)\n",
      "        (fc_o): Linear(in_features=256, out_features=512, bias=True)\n",
      "      )\n",
      "      (irffn): IRFFN(\n",
      "        (conv1): Sequential(\n",
      "          (0): Conv2d(512, 2048, kernel_size=(1, 1), stride=(1, 1))\n",
      "          (1): BatchNorm2d(2048, eps=1e-05, momentum=0.1, affine=True, track_running_stats=True)\n",
      "          (2): GELU()\n",
      "        )\n",
      "        (dwconv): Sequential(\n",
      "          (0): DWCONV(\n",
      "            (depthwise): Conv2d(2048, 2048, kernel_size=(3, 3), stride=(1, 1), padding=(1, 1), groups=2048)\n",
      "          )\n",
      "          (1): BatchNorm2d(2048, eps=1e-05, momentum=0.1, affine=True, track_running_stats=True)\n",
      "          (2): GELU()\n",
      "        )\n",
      "        (conv2): Sequential(\n",
      "          (0): Conv2d(2048, 512, kernel_size=(1, 1), stride=(1, 1))\n",
      "          (1): BatchNorm2d(512, eps=1e-05, momentum=0.1, affine=True, track_running_stats=True)\n",
      "        )\n",
      "      )\n",
      "    )\n",
      "  )\n",
      "  (conv_block_4): ConvBlock(\n",
      "    (conv1): Conv2d(512, 512, kernel_size=(1, 1), stride=(1, 1))\n",
      "    (conv2): Conv2d(512, 512, kernel_size=(3, 3), stride=(1, 1), padding=(1, 1))\n",
      "    (relu): LeakyReLU(negative_slope=0.01)\n",
      "  )\n",
      "  (down_conv_4): DownsampleBlock(\n",
      "    (conv): Conv2d(512, 1024, kernel_size=(2, 2), stride=(2, 2))\n",
      "  )\n",
      "  (cmt_stage_b): Sequential(\n",
      "    (0): CMTBlock(\n",
      "      (lpu): LPU(\n",
      "        (DWConv): DWCONV(\n",
      "          (depthwise): Conv2d(1024, 1024, kernel_size=(3, 3), stride=(1, 1), padding=(1, 1), groups=1024)\n",
      "        )\n",
      "      )\n",
      "      (lmhsa): LMHSA(\n",
      "        (dwconv_k): DWCONV(\n",
      "          (depthwise): Conv2d(1024, 1024, kernel_size=(3, 3), stride=(1, 1), padding=(1, 1), groups=1024)\n",
      "        )\n",
      "        (dwconv_v): DWCONV(\n",
      "          (depthwise): Conv2d(1024, 1024, kernel_size=(3, 3), stride=(1, 1), padding=(1, 1), groups=1024)\n",
      "        )\n",
      "        (fc_q): Linear(in_features=1024, out_features=512, bias=True)\n",
      "        (fc_k): Linear(in_features=1024, out_features=512, bias=True)\n",
      "        (fc_v): Linear(in_features=1024, out_features=512, bias=True)\n",
      "        (fc_o): Linear(in_features=512, out_features=1024, bias=True)\n",
      "      )\n",
      "      (irffn): IRFFN(\n",
      "        (conv1): Sequential(\n",
      "          (0): Conv2d(1024, 4096, kernel_size=(1, 1), stride=(1, 1))\n",
      "          (1): BatchNorm2d(4096, eps=1e-05, momentum=0.1, affine=True, track_running_stats=True)\n",
      "          (2): GELU()\n",
      "        )\n",
      "        (dwconv): Sequential(\n",
      "          (0): DWCONV(\n",
      "            (depthwise): Conv2d(4096, 4096, kernel_size=(3, 3), stride=(1, 1), padding=(1, 1), groups=4096)\n",
      "          )\n",
      "          (1): BatchNorm2d(4096, eps=1e-05, momentum=0.1, affine=True, track_running_stats=True)\n",
      "          (2): GELU()\n",
      "        )\n",
      "        (conv2): Sequential(\n",
      "          (0): Conv2d(4096, 1024, kernel_size=(1, 1), stride=(1, 1))\n",
      "          (1): BatchNorm2d(1024, eps=1e-05, momentum=0.1, affine=True, track_running_stats=True)\n",
      "        )\n",
      "      )\n",
      "    )\n",
      "    (1): CMTBlock(\n",
      "      (lpu): LPU(\n",
      "        (DWConv): DWCONV(\n",
      "          (depthwise): Conv2d(1024, 1024, kernel_size=(3, 3), stride=(1, 1), padding=(1, 1), groups=1024)\n",
      "        )\n",
      "      )\n",
      "      (lmhsa): LMHSA(\n",
      "        (dwconv_k): DWCONV(\n",
      "          (depthwise): Conv2d(1024, 1024, kernel_size=(3, 3), stride=(1, 1), padding=(1, 1), groups=1024)\n",
      "        )\n",
      "        (dwconv_v): DWCONV(\n",
      "          (depthwise): Conv2d(1024, 1024, kernel_size=(3, 3), stride=(1, 1), padding=(1, 1), groups=1024)\n",
      "        )\n",
      "        (fc_q): Linear(in_features=1024, out_features=512, bias=True)\n",
      "        (fc_k): Linear(in_features=1024, out_features=512, bias=True)\n",
      "        (fc_v): Linear(in_features=1024, out_features=512, bias=True)\n",
      "        (fc_o): Linear(in_features=512, out_features=1024, bias=True)\n",
      "      )\n",
      "      (irffn): IRFFN(\n",
      "        (conv1): Sequential(\n",
      "          (0): Conv2d(1024, 4096, kernel_size=(1, 1), stride=(1, 1))\n",
      "          (1): BatchNorm2d(4096, eps=1e-05, momentum=0.1, affine=True, track_running_stats=True)\n",
      "          (2): GELU()\n",
      "        )\n",
      "        (dwconv): Sequential(\n",
      "          (0): DWCONV(\n",
      "            (depthwise): Conv2d(4096, 4096, kernel_size=(3, 3), stride=(1, 1), padding=(1, 1), groups=4096)\n",
      "          )\n",
      "          (1): BatchNorm2d(4096, eps=1e-05, momentum=0.1, affine=True, track_running_stats=True)\n",
      "          (2): GELU()\n",
      "        )\n",
      "        (conv2): Sequential(\n",
      "          (0): Conv2d(4096, 1024, kernel_size=(1, 1), stride=(1, 1))\n",
      "          (1): BatchNorm2d(1024, eps=1e-05, momentum=0.1, affine=True, track_running_stats=True)\n",
      "        )\n",
      "      )\n",
      "    )\n",
      "    (2): CMTBlock(\n",
      "      (lpu): LPU(\n",
      "        (DWConv): DWCONV(\n",
      "          (depthwise): Conv2d(1024, 1024, kernel_size=(3, 3), stride=(1, 1), padding=(1, 1), groups=1024)\n",
      "        )\n",
      "      )\n",
      "      (lmhsa): LMHSA(\n",
      "        (dwconv_k): DWCONV(\n",
      "          (depthwise): Conv2d(1024, 1024, kernel_size=(3, 3), stride=(1, 1), padding=(1, 1), groups=1024)\n",
      "        )\n",
      "        (dwconv_v): DWCONV(\n",
      "          (depthwise): Conv2d(1024, 1024, kernel_size=(3, 3), stride=(1, 1), padding=(1, 1), groups=1024)\n",
      "        )\n",
      "        (fc_q): Linear(in_features=1024, out_features=512, bias=True)\n",
      "        (fc_k): Linear(in_features=1024, out_features=512, bias=True)\n",
      "        (fc_v): Linear(in_features=1024, out_features=512, bias=True)\n",
      "        (fc_o): Linear(in_features=512, out_features=1024, bias=True)\n",
      "      )\n",
      "      (irffn): IRFFN(\n",
      "        (conv1): Sequential(\n",
      "          (0): Conv2d(1024, 4096, kernel_size=(1, 1), stride=(1, 1))\n",
      "          (1): BatchNorm2d(4096, eps=1e-05, momentum=0.1, affine=True, track_running_stats=True)\n",
      "          (2): GELU()\n",
      "        )\n",
      "        (dwconv): Sequential(\n",
      "          (0): DWCONV(\n",
      "            (depthwise): Conv2d(4096, 4096, kernel_size=(3, 3), stride=(1, 1), padding=(1, 1), groups=4096)\n",
      "          )\n",
      "          (1): BatchNorm2d(4096, eps=1e-05, momentum=0.1, affine=True, track_running_stats=True)\n",
      "          (2): GELU()\n",
      "        )\n",
      "        (conv2): Sequential(\n",
      "          (0): Conv2d(4096, 1024, kernel_size=(1, 1), stride=(1, 1))\n",
      "          (1): BatchNorm2d(1024, eps=1e-05, momentum=0.1, affine=True, track_running_stats=True)\n",
      "        )\n",
      "      )\n",
      "    )\n",
      "  )\n",
      "  (conv_block_b): ConvBlock(\n",
      "    (conv1): Conv2d(1024, 2048, kernel_size=(1, 1), stride=(1, 1))\n",
      "    (conv2): Conv2d(2048, 2048, kernel_size=(3, 3), stride=(1, 1), padding=(1, 1))\n",
      "    (relu): LeakyReLU(negative_slope=0.01)\n",
      "  )\n",
      "  (up_conv_5): UpsampleBlock(\n",
      "    (conv): Conv2d(2048, 8192, kernel_size=(3, 3), stride=(1, 1), padding=(1, 1))\n",
      "    (pixel_shuffle): PixelShuffle(upscale_factor=2)\n",
      "    (prelu): PReLU(num_parameters=1)\n",
      "  )\n",
      "  (conv_block_5): ConvBlock(\n",
      "    (conv1): Conv2d(1536, 512, kernel_size=(1, 1), stride=(1, 1))\n",
      "    (conv2): Conv2d(512, 512, kernel_size=(3, 3), stride=(1, 1), padding=(1, 1))\n",
      "    (relu): LeakyReLU(negative_slope=0.01)\n",
      "  )\n",
      "  (cmt_stage_5): Sequential(\n",
      "    (0): CMTBlock(\n",
      "      (lpu): LPU(\n",
      "        (DWConv): DWCONV(\n",
      "          (depthwise): Conv2d(512, 512, kernel_size=(3, 3), stride=(1, 1), padding=(1, 1), groups=512)\n",
      "        )\n",
      "      )\n",
      "      (lmhsa): LMHSA(\n",
      "        (dwconv_k): DWCONV(\n",
      "          (depthwise): Conv2d(512, 512, kernel_size=(3, 3), stride=(1, 1), padding=(1, 1), groups=512)\n",
      "        )\n",
      "        (dwconv_v): DWCONV(\n",
      "          (depthwise): Conv2d(512, 512, kernel_size=(3, 3), stride=(1, 1), padding=(1, 1), groups=512)\n",
      "        )\n",
      "        (fc_q): Linear(in_features=512, out_features=256, bias=True)\n",
      "        (fc_k): Linear(in_features=512, out_features=256, bias=True)\n",
      "        (fc_v): Linear(in_features=512, out_features=256, bias=True)\n",
      "        (fc_o): Linear(in_features=256, out_features=512, bias=True)\n",
      "      )\n",
      "      (irffn): IRFFN(\n",
      "        (conv1): Sequential(\n",
      "          (0): Conv2d(512, 2048, kernel_size=(1, 1), stride=(1, 1))\n",
      "          (1): BatchNorm2d(2048, eps=1e-05, momentum=0.1, affine=True, track_running_stats=True)\n",
      "          (2): GELU()\n",
      "        )\n",
      "        (dwconv): Sequential(\n",
      "          (0): DWCONV(\n",
      "            (depthwise): Conv2d(2048, 2048, kernel_size=(3, 3), stride=(1, 1), padding=(1, 1), groups=2048)\n",
      "          )\n",
      "          (1): BatchNorm2d(2048, eps=1e-05, momentum=0.1, affine=True, track_running_stats=True)\n",
      "          (2): GELU()\n",
      "        )\n",
      "        (conv2): Sequential(\n",
      "          (0): Conv2d(2048, 512, kernel_size=(1, 1), stride=(1, 1))\n",
      "          (1): BatchNorm2d(512, eps=1e-05, momentum=0.1, affine=True, track_running_stats=True)\n",
      "        )\n",
      "      )\n",
      "    )\n",
      "    (1): CMTBlock(\n",
      "      (lpu): LPU(\n",
      "        (DWConv): DWCONV(\n",
      "          (depthwise): Conv2d(512, 512, kernel_size=(3, 3), stride=(1, 1), padding=(1, 1), groups=512)\n",
      "        )\n",
      "      )\n",
      "      (lmhsa): LMHSA(\n",
      "        (dwconv_k): DWCONV(\n",
      "          (depthwise): Conv2d(512, 512, kernel_size=(3, 3), stride=(1, 1), padding=(1, 1), groups=512)\n",
      "        )\n",
      "        (dwconv_v): DWCONV(\n",
      "          (depthwise): Conv2d(512, 512, kernel_size=(3, 3), stride=(1, 1), padding=(1, 1), groups=512)\n",
      "        )\n",
      "        (fc_q): Linear(in_features=512, out_features=256, bias=True)\n",
      "        (fc_k): Linear(in_features=512, out_features=256, bias=True)\n",
      "        (fc_v): Linear(in_features=512, out_features=256, bias=True)\n",
      "        (fc_o): Linear(in_features=256, out_features=512, bias=True)\n",
      "      )\n",
      "      (irffn): IRFFN(\n",
      "        (conv1): Sequential(\n",
      "          (0): Conv2d(512, 2048, kernel_size=(1, 1), stride=(1, 1))\n",
      "          (1): BatchNorm2d(2048, eps=1e-05, momentum=0.1, affine=True, track_running_stats=True)\n",
      "          (2): GELU()\n",
      "        )\n",
      "        (dwconv): Sequential(\n",
      "          (0): DWCONV(\n",
      "            (depthwise): Conv2d(2048, 2048, kernel_size=(3, 3), stride=(1, 1), padding=(1, 1), groups=2048)\n",
      "          )\n",
      "          (1): BatchNorm2d(2048, eps=1e-05, momentum=0.1, affine=True, track_running_stats=True)\n",
      "          (2): GELU()\n",
      "        )\n",
      "        (conv2): Sequential(\n",
      "          (0): Conv2d(2048, 512, kernel_size=(1, 1), stride=(1, 1))\n",
      "          (1): BatchNorm2d(512, eps=1e-05, momentum=0.1, affine=True, track_running_stats=True)\n",
      "        )\n",
      "      )\n",
      "    )\n",
      "    (2): CMTBlock(\n",
      "      (lpu): LPU(\n",
      "        (DWConv): DWCONV(\n",
      "          (depthwise): Conv2d(512, 512, kernel_size=(3, 3), stride=(1, 1), padding=(1, 1), groups=512)\n",
      "        )\n",
      "      )\n",
      "      (lmhsa): LMHSA(\n",
      "        (dwconv_k): DWCONV(\n",
      "          (depthwise): Conv2d(512, 512, kernel_size=(3, 3), stride=(1, 1), padding=(1, 1), groups=512)\n",
      "        )\n",
      "        (dwconv_v): DWCONV(\n",
      "          (depthwise): Conv2d(512, 512, kernel_size=(3, 3), stride=(1, 1), padding=(1, 1), groups=512)\n",
      "        )\n",
      "        (fc_q): Linear(in_features=512, out_features=256, bias=True)\n",
      "        (fc_k): Linear(in_features=512, out_features=256, bias=True)\n",
      "        (fc_v): Linear(in_features=512, out_features=256, bias=True)\n",
      "        (fc_o): Linear(in_features=256, out_features=512, bias=True)\n",
      "      )\n",
      "      (irffn): IRFFN(\n",
      "        (conv1): Sequential(\n",
      "          (0): Conv2d(512, 2048, kernel_size=(1, 1), stride=(1, 1))\n",
      "          (1): BatchNorm2d(2048, eps=1e-05, momentum=0.1, affine=True, track_running_stats=True)\n",
      "          (2): GELU()\n",
      "        )\n",
      "        (dwconv): Sequential(\n",
      "          (0): DWCONV(\n",
      "            (depthwise): Conv2d(2048, 2048, kernel_size=(3, 3), stride=(1, 1), padding=(1, 1), groups=2048)\n",
      "          )\n",
      "          (1): BatchNorm2d(2048, eps=1e-05, momentum=0.1, affine=True, track_running_stats=True)\n",
      "          (2): GELU()\n",
      "        )\n",
      "        (conv2): Sequential(\n",
      "          (0): Conv2d(2048, 512, kernel_size=(1, 1), stride=(1, 1))\n",
      "          (1): BatchNorm2d(512, eps=1e-05, momentum=0.1, affine=True, track_running_stats=True)\n",
      "        )\n",
      "      )\n",
      "    )\n",
      "  )\n",
      "  (up_conv_6): UpsampleBlock(\n",
      "    (conv): Conv2d(512, 2048, kernel_size=(3, 3), stride=(1, 1), padding=(1, 1))\n",
      "    (pixel_shuffle): PixelShuffle(upscale_factor=2)\n",
      "    (prelu): PReLU(num_parameters=1)\n",
      "  )\n",
      "  (conv_block_6): ConvBlock(\n",
      "    (conv1): Conv2d(512, 128, kernel_size=(1, 1), stride=(1, 1))\n",
      "    (conv2): Conv2d(128, 128, kernel_size=(3, 3), stride=(1, 1), padding=(1, 1))\n",
      "    (relu): LeakyReLU(negative_slope=0.01)\n",
      "  )\n",
      "  (cmt_stage_6): Sequential(\n",
      "    (0): CMTBlock(\n",
      "      (lpu): LPU(\n",
      "        (DWConv): DWCONV(\n",
      "          (depthwise): Conv2d(256, 256, kernel_size=(3, 3), stride=(1, 1), padding=(1, 1), groups=256)\n",
      "        )\n",
      "      )\n",
      "      (lmhsa): LMHSA(\n",
      "        (dwconv_k): DWCONV(\n",
      "          (depthwise): Conv2d(256, 256, kernel_size=(3, 3), stride=(2, 2), padding=(1, 1), groups=256)\n",
      "        )\n",
      "        (dwconv_v): DWCONV(\n",
      "          (depthwise): Conv2d(256, 256, kernel_size=(3, 3), stride=(2, 2), padding=(1, 1), groups=256)\n",
      "        )\n",
      "        (fc_q): Linear(in_features=256, out_features=128, bias=True)\n",
      "        (fc_k): Linear(in_features=256, out_features=128, bias=True)\n",
      "        (fc_v): Linear(in_features=256, out_features=128, bias=True)\n",
      "        (fc_o): Linear(in_features=128, out_features=256, bias=True)\n",
      "      )\n",
      "      (irffn): IRFFN(\n",
      "        (conv1): Sequential(\n",
      "          (0): Conv2d(256, 1024, kernel_size=(1, 1), stride=(1, 1))\n",
      "          (1): BatchNorm2d(1024, eps=1e-05, momentum=0.1, affine=True, track_running_stats=True)\n",
      "          (2): GELU()\n",
      "        )\n",
      "        (dwconv): Sequential(\n",
      "          (0): DWCONV(\n",
      "            (depthwise): Conv2d(1024, 1024, kernel_size=(3, 3), stride=(1, 1), padding=(1, 1), groups=1024)\n",
      "          )\n",
      "          (1): BatchNorm2d(1024, eps=1e-05, momentum=0.1, affine=True, track_running_stats=True)\n",
      "          (2): GELU()\n",
      "        )\n",
      "        (conv2): Sequential(\n",
      "          (0): Conv2d(1024, 256, kernel_size=(1, 1), stride=(1, 1))\n",
      "          (1): BatchNorm2d(256, eps=1e-05, momentum=0.1, affine=True, track_running_stats=True)\n",
      "        )\n",
      "      )\n",
      "    )\n",
      "    (1): CMTBlock(\n",
      "      (lpu): LPU(\n",
      "        (DWConv): DWCONV(\n",
      "          (depthwise): Conv2d(256, 256, kernel_size=(3, 3), stride=(1, 1), padding=(1, 1), groups=256)\n",
      "        )\n",
      "      )\n",
      "      (lmhsa): LMHSA(\n",
      "        (dwconv_k): DWCONV(\n",
      "          (depthwise): Conv2d(256, 256, kernel_size=(3, 3), stride=(2, 2), padding=(1, 1), groups=256)\n",
      "        )\n",
      "        (dwconv_v): DWCONV(\n",
      "          (depthwise): Conv2d(256, 256, kernel_size=(3, 3), stride=(2, 2), padding=(1, 1), groups=256)\n",
      "        )\n",
      "        (fc_q): Linear(in_features=256, out_features=128, bias=True)\n",
      "        (fc_k): Linear(in_features=256, out_features=128, bias=True)\n",
      "        (fc_v): Linear(in_features=256, out_features=128, bias=True)\n",
      "        (fc_o): Linear(in_features=128, out_features=256, bias=True)\n",
      "      )\n",
      "      (irffn): IRFFN(\n",
      "        (conv1): Sequential(\n",
      "          (0): Conv2d(256, 1024, kernel_size=(1, 1), stride=(1, 1))\n",
      "          (1): BatchNorm2d(1024, eps=1e-05, momentum=0.1, affine=True, track_running_stats=True)\n",
      "          (2): GELU()\n",
      "        )\n",
      "        (dwconv): Sequential(\n",
      "          (0): DWCONV(\n",
      "            (depthwise): Conv2d(1024, 1024, kernel_size=(3, 3), stride=(1, 1), padding=(1, 1), groups=1024)\n",
      "          )\n",
      "          (1): BatchNorm2d(1024, eps=1e-05, momentum=0.1, affine=True, track_running_stats=True)\n",
      "          (2): GELU()\n",
      "        )\n",
      "        (conv2): Sequential(\n",
      "          (0): Conv2d(1024, 256, kernel_size=(1, 1), stride=(1, 1))\n",
      "          (1): BatchNorm2d(256, eps=1e-05, momentum=0.1, affine=True, track_running_stats=True)\n",
      "        )\n",
      "      )\n",
      "    )\n",
      "    (2): CMTBlock(\n",
      "      (lpu): LPU(\n",
      "        (DWConv): DWCONV(\n",
      "          (depthwise): Conv2d(256, 256, kernel_size=(3, 3), stride=(1, 1), padding=(1, 1), groups=256)\n",
      "        )\n",
      "      )\n",
      "      (lmhsa): LMHSA(\n",
      "        (dwconv_k): DWCONV(\n",
      "          (depthwise): Conv2d(256, 256, kernel_size=(3, 3), stride=(2, 2), padding=(1, 1), groups=256)\n",
      "        )\n",
      "        (dwconv_v): DWCONV(\n",
      "          (depthwise): Conv2d(256, 256, kernel_size=(3, 3), stride=(2, 2), padding=(1, 1), groups=256)\n",
      "        )\n",
      "        (fc_q): Linear(in_features=256, out_features=128, bias=True)\n",
      "        (fc_k): Linear(in_features=256, out_features=128, bias=True)\n",
      "        (fc_v): Linear(in_features=256, out_features=128, bias=True)\n",
      "        (fc_o): Linear(in_features=128, out_features=256, bias=True)\n",
      "      )\n",
      "      (irffn): IRFFN(\n",
      "        (conv1): Sequential(\n",
      "          (0): Conv2d(256, 1024, kernel_size=(1, 1), stride=(1, 1))\n",
      "          (1): BatchNorm2d(1024, eps=1e-05, momentum=0.1, affine=True, track_running_stats=True)\n",
      "          (2): GELU()\n",
      "        )\n",
      "        (dwconv): Sequential(\n",
      "          (0): DWCONV(\n",
      "            (depthwise): Conv2d(1024, 1024, kernel_size=(3, 3), stride=(1, 1), padding=(1, 1), groups=1024)\n",
      "          )\n",
      "          (1): BatchNorm2d(1024, eps=1e-05, momentum=0.1, affine=True, track_running_stats=True)\n",
      "          (2): GELU()\n",
      "        )\n",
      "        (conv2): Sequential(\n",
      "          (0): Conv2d(1024, 256, kernel_size=(1, 1), stride=(1, 1))\n",
      "          (1): BatchNorm2d(256, eps=1e-05, momentum=0.1, affine=True, track_running_stats=True)\n",
      "        )\n",
      "      )\n",
      "    )\n",
      "    (3): CMTBlock(\n",
      "      (lpu): LPU(\n",
      "        (DWConv): DWCONV(\n",
      "          (depthwise): Conv2d(256, 256, kernel_size=(3, 3), stride=(1, 1), padding=(1, 1), groups=256)\n",
      "        )\n",
      "      )\n",
      "      (lmhsa): LMHSA(\n",
      "        (dwconv_k): DWCONV(\n",
      "          (depthwise): Conv2d(256, 256, kernel_size=(3, 3), stride=(2, 2), padding=(1, 1), groups=256)\n",
      "        )\n",
      "        (dwconv_v): DWCONV(\n",
      "          (depthwise): Conv2d(256, 256, kernel_size=(3, 3), stride=(2, 2), padding=(1, 1), groups=256)\n",
      "        )\n",
      "        (fc_q): Linear(in_features=256, out_features=128, bias=True)\n",
      "        (fc_k): Linear(in_features=256, out_features=128, bias=True)\n",
      "        (fc_v): Linear(in_features=256, out_features=128, bias=True)\n",
      "        (fc_o): Linear(in_features=128, out_features=256, bias=True)\n",
      "      )\n",
      "      (irffn): IRFFN(\n",
      "        (conv1): Sequential(\n",
      "          (0): Conv2d(256, 1024, kernel_size=(1, 1), stride=(1, 1))\n",
      "          (1): BatchNorm2d(1024, eps=1e-05, momentum=0.1, affine=True, track_running_stats=True)\n",
      "          (2): GELU()\n",
      "        )\n",
      "        (dwconv): Sequential(\n",
      "          (0): DWCONV(\n",
      "            (depthwise): Conv2d(1024, 1024, kernel_size=(3, 3), stride=(1, 1), padding=(1, 1), groups=1024)\n",
      "          )\n",
      "          (1): BatchNorm2d(1024, eps=1e-05, momentum=0.1, affine=True, track_running_stats=True)\n",
      "          (2): GELU()\n",
      "        )\n",
      "        (conv2): Sequential(\n",
      "          (0): Conv2d(1024, 256, kernel_size=(1, 1), stride=(1, 1))\n",
      "          (1): BatchNorm2d(256, eps=1e-05, momentum=0.1, affine=True, track_running_stats=True)\n",
      "        )\n",
      "      )\n",
      "    )\n",
      "    (4): CMTBlock(\n",
      "      (lpu): LPU(\n",
      "        (DWConv): DWCONV(\n",
      "          (depthwise): Conv2d(256, 256, kernel_size=(3, 3), stride=(1, 1), padding=(1, 1), groups=256)\n",
      "        )\n",
      "      )\n",
      "      (lmhsa): LMHSA(\n",
      "        (dwconv_k): DWCONV(\n",
      "          (depthwise): Conv2d(256, 256, kernel_size=(3, 3), stride=(2, 2), padding=(1, 1), groups=256)\n",
      "        )\n",
      "        (dwconv_v): DWCONV(\n",
      "          (depthwise): Conv2d(256, 256, kernel_size=(3, 3), stride=(2, 2), padding=(1, 1), groups=256)\n",
      "        )\n",
      "        (fc_q): Linear(in_features=256, out_features=128, bias=True)\n",
      "        (fc_k): Linear(in_features=256, out_features=128, bias=True)\n",
      "        (fc_v): Linear(in_features=256, out_features=128, bias=True)\n",
      "        (fc_o): Linear(in_features=128, out_features=256, bias=True)\n",
      "      )\n",
      "      (irffn): IRFFN(\n",
      "        (conv1): Sequential(\n",
      "          (0): Conv2d(256, 1024, kernel_size=(1, 1), stride=(1, 1))\n",
      "          (1): BatchNorm2d(1024, eps=1e-05, momentum=0.1, affine=True, track_running_stats=True)\n",
      "          (2): GELU()\n",
      "        )\n",
      "        (dwconv): Sequential(\n",
      "          (0): DWCONV(\n",
      "            (depthwise): Conv2d(1024, 1024, kernel_size=(3, 3), stride=(1, 1), padding=(1, 1), groups=1024)\n",
      "          )\n",
      "          (1): BatchNorm2d(1024, eps=1e-05, momentum=0.1, affine=True, track_running_stats=True)\n",
      "          (2): GELU()\n",
      "        )\n",
      "        (conv2): Sequential(\n",
      "          (0): Conv2d(1024, 256, kernel_size=(1, 1), stride=(1, 1))\n",
      "          (1): BatchNorm2d(256, eps=1e-05, momentum=0.1, affine=True, track_running_stats=True)\n",
      "        )\n",
      "      )\n",
      "    )\n",
      "    (5): CMTBlock(\n",
      "      (lpu): LPU(\n",
      "        (DWConv): DWCONV(\n",
      "          (depthwise): Conv2d(256, 256, kernel_size=(3, 3), stride=(1, 1), padding=(1, 1), groups=256)\n",
      "        )\n",
      "      )\n",
      "      (lmhsa): LMHSA(\n",
      "        (dwconv_k): DWCONV(\n",
      "          (depthwise): Conv2d(256, 256, kernel_size=(3, 3), stride=(2, 2), padding=(1, 1), groups=256)\n",
      "        )\n",
      "        (dwconv_v): DWCONV(\n",
      "          (depthwise): Conv2d(256, 256, kernel_size=(3, 3), stride=(2, 2), padding=(1, 1), groups=256)\n",
      "        )\n",
      "        (fc_q): Linear(in_features=256, out_features=128, bias=True)\n",
      "        (fc_k): Linear(in_features=256, out_features=128, bias=True)\n",
      "        (fc_v): Linear(in_features=256, out_features=128, bias=True)\n",
      "        (fc_o): Linear(in_features=128, out_features=256, bias=True)\n",
      "      )\n",
      "      (irffn): IRFFN(\n",
      "        (conv1): Sequential(\n",
      "          (0): Conv2d(256, 1024, kernel_size=(1, 1), stride=(1, 1))\n",
      "          (1): BatchNorm2d(1024, eps=1e-05, momentum=0.1, affine=True, track_running_stats=True)\n",
      "          (2): GELU()\n",
      "        )\n",
      "        (dwconv): Sequential(\n",
      "          (0): DWCONV(\n",
      "            (depthwise): Conv2d(1024, 1024, kernel_size=(3, 3), stride=(1, 1), padding=(1, 1), groups=1024)\n",
      "          )\n",
      "          (1): BatchNorm2d(1024, eps=1e-05, momentum=0.1, affine=True, track_running_stats=True)\n",
      "          (2): GELU()\n",
      "        )\n",
      "        (conv2): Sequential(\n",
      "          (0): Conv2d(1024, 256, kernel_size=(1, 1), stride=(1, 1))\n",
      "          (1): BatchNorm2d(256, eps=1e-05, momentum=0.1, affine=True, track_running_stats=True)\n",
      "        )\n",
      "      )\n",
      "    )\n",
      "    (6): CMTBlock(\n",
      "      (lpu): LPU(\n",
      "        (DWConv): DWCONV(\n",
      "          (depthwise): Conv2d(256, 256, kernel_size=(3, 3), stride=(1, 1), padding=(1, 1), groups=256)\n",
      "        )\n",
      "      )\n",
      "      (lmhsa): LMHSA(\n",
      "        (dwconv_k): DWCONV(\n",
      "          (depthwise): Conv2d(256, 256, kernel_size=(3, 3), stride=(2, 2), padding=(1, 1), groups=256)\n",
      "        )\n",
      "        (dwconv_v): DWCONV(\n",
      "          (depthwise): Conv2d(256, 256, kernel_size=(3, 3), stride=(2, 2), padding=(1, 1), groups=256)\n",
      "        )\n",
      "        (fc_q): Linear(in_features=256, out_features=128, bias=True)\n",
      "        (fc_k): Linear(in_features=256, out_features=128, bias=True)\n",
      "        (fc_v): Linear(in_features=256, out_features=128, bias=True)\n",
      "        (fc_o): Linear(in_features=128, out_features=256, bias=True)\n",
      "      )\n",
      "      (irffn): IRFFN(\n",
      "        (conv1): Sequential(\n",
      "          (0): Conv2d(256, 1024, kernel_size=(1, 1), stride=(1, 1))\n",
      "          (1): BatchNorm2d(1024, eps=1e-05, momentum=0.1, affine=True, track_running_stats=True)\n",
      "          (2): GELU()\n",
      "        )\n",
      "        (dwconv): Sequential(\n",
      "          (0): DWCONV(\n",
      "            (depthwise): Conv2d(1024, 1024, kernel_size=(3, 3), stride=(1, 1), padding=(1, 1), groups=1024)\n",
      "          )\n",
      "          (1): BatchNorm2d(1024, eps=1e-05, momentum=0.1, affine=True, track_running_stats=True)\n",
      "          (2): GELU()\n",
      "        )\n",
      "        (conv2): Sequential(\n",
      "          (0): Conv2d(1024, 256, kernel_size=(1, 1), stride=(1, 1))\n",
      "          (1): BatchNorm2d(256, eps=1e-05, momentum=0.1, affine=True, track_running_stats=True)\n",
      "        )\n",
      "      )\n",
      "    )\n",
      "    (7): CMTBlock(\n",
      "      (lpu): LPU(\n",
      "        (DWConv): DWCONV(\n",
      "          (depthwise): Conv2d(256, 256, kernel_size=(3, 3), stride=(1, 1), padding=(1, 1), groups=256)\n",
      "        )\n",
      "      )\n",
      "      (lmhsa): LMHSA(\n",
      "        (dwconv_k): DWCONV(\n",
      "          (depthwise): Conv2d(256, 256, kernel_size=(3, 3), stride=(2, 2), padding=(1, 1), groups=256)\n",
      "        )\n",
      "        (dwconv_v): DWCONV(\n",
      "          (depthwise): Conv2d(256, 256, kernel_size=(3, 3), stride=(2, 2), padding=(1, 1), groups=256)\n",
      "        )\n",
      "        (fc_q): Linear(in_features=256, out_features=128, bias=True)\n",
      "        (fc_k): Linear(in_features=256, out_features=128, bias=True)\n",
      "        (fc_v): Linear(in_features=256, out_features=128, bias=True)\n",
      "        (fc_o): Linear(in_features=128, out_features=256, bias=True)\n",
      "      )\n",
      "      (irffn): IRFFN(\n",
      "        (conv1): Sequential(\n",
      "          (0): Conv2d(256, 1024, kernel_size=(1, 1), stride=(1, 1))\n",
      "          (1): BatchNorm2d(1024, eps=1e-05, momentum=0.1, affine=True, track_running_stats=True)\n",
      "          (2): GELU()\n",
      "        )\n",
      "        (dwconv): Sequential(\n",
      "          (0): DWCONV(\n",
      "            (depthwise): Conv2d(1024, 1024, kernel_size=(3, 3), stride=(1, 1), padding=(1, 1), groups=1024)\n",
      "          )\n",
      "          (1): BatchNorm2d(1024, eps=1e-05, momentum=0.1, affine=True, track_running_stats=True)\n",
      "          (2): GELU()\n",
      "        )\n",
      "        (conv2): Sequential(\n",
      "          (0): Conv2d(1024, 256, kernel_size=(1, 1), stride=(1, 1))\n",
      "          (1): BatchNorm2d(256, eps=1e-05, momentum=0.1, affine=True, track_running_stats=True)\n",
      "        )\n",
      "      )\n",
      "    )\n",
      "    (8): CMTBlock(\n",
      "      (lpu): LPU(\n",
      "        (DWConv): DWCONV(\n",
      "          (depthwise): Conv2d(256, 256, kernel_size=(3, 3), stride=(1, 1), padding=(1, 1), groups=256)\n",
      "        )\n",
      "      )\n",
      "      (lmhsa): LMHSA(\n",
      "        (dwconv_k): DWCONV(\n",
      "          (depthwise): Conv2d(256, 256, kernel_size=(3, 3), stride=(2, 2), padding=(1, 1), groups=256)\n",
      "        )\n",
      "        (dwconv_v): DWCONV(\n",
      "          (depthwise): Conv2d(256, 256, kernel_size=(3, 3), stride=(2, 2), padding=(1, 1), groups=256)\n",
      "        )\n",
      "        (fc_q): Linear(in_features=256, out_features=128, bias=True)\n",
      "        (fc_k): Linear(in_features=256, out_features=128, bias=True)\n",
      "        (fc_v): Linear(in_features=256, out_features=128, bias=True)\n",
      "        (fc_o): Linear(in_features=128, out_features=256, bias=True)\n",
      "      )\n",
      "      (irffn): IRFFN(\n",
      "        (conv1): Sequential(\n",
      "          (0): Conv2d(256, 1024, kernel_size=(1, 1), stride=(1, 1))\n",
      "          (1): BatchNorm2d(1024, eps=1e-05, momentum=0.1, affine=True, track_running_stats=True)\n",
      "          (2): GELU()\n",
      "        )\n",
      "        (dwconv): Sequential(\n",
      "          (0): DWCONV(\n",
      "            (depthwise): Conv2d(1024, 1024, kernel_size=(3, 3), stride=(1, 1), padding=(1, 1), groups=1024)\n",
      "          )\n",
      "          (1): BatchNorm2d(1024, eps=1e-05, momentum=0.1, affine=True, track_running_stats=True)\n",
      "          (2): GELU()\n",
      "        )\n",
      "        (conv2): Sequential(\n",
      "          (0): Conv2d(1024, 256, kernel_size=(1, 1), stride=(1, 1))\n",
      "          (1): BatchNorm2d(256, eps=1e-05, momentum=0.1, affine=True, track_running_stats=True)\n",
      "        )\n",
      "      )\n",
      "    )\n",
      "    (9): CMTBlock(\n",
      "      (lpu): LPU(\n",
      "        (DWConv): DWCONV(\n",
      "          (depthwise): Conv2d(256, 256, kernel_size=(3, 3), stride=(1, 1), padding=(1, 1), groups=256)\n",
      "        )\n",
      "      )\n",
      "      (lmhsa): LMHSA(\n",
      "        (dwconv_k): DWCONV(\n",
      "          (depthwise): Conv2d(256, 256, kernel_size=(3, 3), stride=(2, 2), padding=(1, 1), groups=256)\n",
      "        )\n",
      "        (dwconv_v): DWCONV(\n",
      "          (depthwise): Conv2d(256, 256, kernel_size=(3, 3), stride=(2, 2), padding=(1, 1), groups=256)\n",
      "        )\n",
      "        (fc_q): Linear(in_features=256, out_features=128, bias=True)\n",
      "        (fc_k): Linear(in_features=256, out_features=128, bias=True)\n",
      "        (fc_v): Linear(in_features=256, out_features=128, bias=True)\n",
      "        (fc_o): Linear(in_features=128, out_features=256, bias=True)\n",
      "      )\n",
      "      (irffn): IRFFN(\n",
      "        (conv1): Sequential(\n",
      "          (0): Conv2d(256, 1024, kernel_size=(1, 1), stride=(1, 1))\n",
      "          (1): BatchNorm2d(1024, eps=1e-05, momentum=0.1, affine=True, track_running_stats=True)\n",
      "          (2): GELU()\n",
      "        )\n",
      "        (dwconv): Sequential(\n",
      "          (0): DWCONV(\n",
      "            (depthwise): Conv2d(1024, 1024, kernel_size=(3, 3), stride=(1, 1), padding=(1, 1), groups=1024)\n",
      "          )\n",
      "          (1): BatchNorm2d(1024, eps=1e-05, momentum=0.1, affine=True, track_running_stats=True)\n",
      "          (2): GELU()\n",
      "        )\n",
      "        (conv2): Sequential(\n",
      "          (0): Conv2d(1024, 256, kernel_size=(1, 1), stride=(1, 1))\n",
      "          (1): BatchNorm2d(256, eps=1e-05, momentum=0.1, affine=True, track_running_stats=True)\n",
      "        )\n",
      "      )\n",
      "    )\n",
      "    (10): CMTBlock(\n",
      "      (lpu): LPU(\n",
      "        (DWConv): DWCONV(\n",
      "          (depthwise): Conv2d(256, 256, kernel_size=(3, 3), stride=(1, 1), padding=(1, 1), groups=256)\n",
      "        )\n",
      "      )\n",
      "      (lmhsa): LMHSA(\n",
      "        (dwconv_k): DWCONV(\n",
      "          (depthwise): Conv2d(256, 256, kernel_size=(3, 3), stride=(2, 2), padding=(1, 1), groups=256)\n",
      "        )\n",
      "        (dwconv_v): DWCONV(\n",
      "          (depthwise): Conv2d(256, 256, kernel_size=(3, 3), stride=(2, 2), padding=(1, 1), groups=256)\n",
      "        )\n",
      "        (fc_q): Linear(in_features=256, out_features=128, bias=True)\n",
      "        (fc_k): Linear(in_features=256, out_features=128, bias=True)\n",
      "        (fc_v): Linear(in_features=256, out_features=128, bias=True)\n",
      "        (fc_o): Linear(in_features=128, out_features=256, bias=True)\n",
      "      )\n",
      "      (irffn): IRFFN(\n",
      "        (conv1): Sequential(\n",
      "          (0): Conv2d(256, 1024, kernel_size=(1, 1), stride=(1, 1))\n",
      "          (1): BatchNorm2d(1024, eps=1e-05, momentum=0.1, affine=True, track_running_stats=True)\n",
      "          (2): GELU()\n",
      "        )\n",
      "        (dwconv): Sequential(\n",
      "          (0): DWCONV(\n",
      "            (depthwise): Conv2d(1024, 1024, kernel_size=(3, 3), stride=(1, 1), padding=(1, 1), groups=1024)\n",
      "          )\n",
      "          (1): BatchNorm2d(1024, eps=1e-05, momentum=0.1, affine=True, track_running_stats=True)\n",
      "          (2): GELU()\n",
      "        )\n",
      "        (conv2): Sequential(\n",
      "          (0): Conv2d(1024, 256, kernel_size=(1, 1), stride=(1, 1))\n",
      "          (1): BatchNorm2d(256, eps=1e-05, momentum=0.1, affine=True, track_running_stats=True)\n",
      "        )\n",
      "      )\n",
      "    )\n",
      "    (11): CMTBlock(\n",
      "      (lpu): LPU(\n",
      "        (DWConv): DWCONV(\n",
      "          (depthwise): Conv2d(256, 256, kernel_size=(3, 3), stride=(1, 1), padding=(1, 1), groups=256)\n",
      "        )\n",
      "      )\n",
      "      (lmhsa): LMHSA(\n",
      "        (dwconv_k): DWCONV(\n",
      "          (depthwise): Conv2d(256, 256, kernel_size=(3, 3), stride=(2, 2), padding=(1, 1), groups=256)\n",
      "        )\n",
      "        (dwconv_v): DWCONV(\n",
      "          (depthwise): Conv2d(256, 256, kernel_size=(3, 3), stride=(2, 2), padding=(1, 1), groups=256)\n",
      "        )\n",
      "        (fc_q): Linear(in_features=256, out_features=128, bias=True)\n",
      "        (fc_k): Linear(in_features=256, out_features=128, bias=True)\n",
      "        (fc_v): Linear(in_features=256, out_features=128, bias=True)\n",
      "        (fc_o): Linear(in_features=128, out_features=256, bias=True)\n",
      "      )\n",
      "      (irffn): IRFFN(\n",
      "        (conv1): Sequential(\n",
      "          (0): Conv2d(256, 1024, kernel_size=(1, 1), stride=(1, 1))\n",
      "          (1): BatchNorm2d(1024, eps=1e-05, momentum=0.1, affine=True, track_running_stats=True)\n",
      "          (2): GELU()\n",
      "        )\n",
      "        (dwconv): Sequential(\n",
      "          (0): DWCONV(\n",
      "            (depthwise): Conv2d(1024, 1024, kernel_size=(3, 3), stride=(1, 1), padding=(1, 1), groups=1024)\n",
      "          )\n",
      "          (1): BatchNorm2d(1024, eps=1e-05, momentum=0.1, affine=True, track_running_stats=True)\n",
      "          (2): GELU()\n",
      "        )\n",
      "        (conv2): Sequential(\n",
      "          (0): Conv2d(1024, 256, kernel_size=(1, 1), stride=(1, 1))\n",
      "          (1): BatchNorm2d(256, eps=1e-05, momentum=0.1, affine=True, track_running_stats=True)\n",
      "        )\n",
      "      )\n",
      "    )\n",
      "    (12): CMTBlock(\n",
      "      (lpu): LPU(\n",
      "        (DWConv): DWCONV(\n",
      "          (depthwise): Conv2d(256, 256, kernel_size=(3, 3), stride=(1, 1), padding=(1, 1), groups=256)\n",
      "        )\n",
      "      )\n",
      "      (lmhsa): LMHSA(\n",
      "        (dwconv_k): DWCONV(\n",
      "          (depthwise): Conv2d(256, 256, kernel_size=(3, 3), stride=(2, 2), padding=(1, 1), groups=256)\n",
      "        )\n",
      "        (dwconv_v): DWCONV(\n",
      "          (depthwise): Conv2d(256, 256, kernel_size=(3, 3), stride=(2, 2), padding=(1, 1), groups=256)\n",
      "        )\n",
      "        (fc_q): Linear(in_features=256, out_features=128, bias=True)\n",
      "        (fc_k): Linear(in_features=256, out_features=128, bias=True)\n",
      "        (fc_v): Linear(in_features=256, out_features=128, bias=True)\n",
      "        (fc_o): Linear(in_features=128, out_features=256, bias=True)\n",
      "      )\n",
      "      (irffn): IRFFN(\n",
      "        (conv1): Sequential(\n",
      "          (0): Conv2d(256, 1024, kernel_size=(1, 1), stride=(1, 1))\n",
      "          (1): BatchNorm2d(1024, eps=1e-05, momentum=0.1, affine=True, track_running_stats=True)\n",
      "          (2): GELU()\n",
      "        )\n",
      "        (dwconv): Sequential(\n",
      "          (0): DWCONV(\n",
      "            (depthwise): Conv2d(1024, 1024, kernel_size=(3, 3), stride=(1, 1), padding=(1, 1), groups=1024)\n",
      "          )\n",
      "          (1): BatchNorm2d(1024, eps=1e-05, momentum=0.1, affine=True, track_running_stats=True)\n",
      "          (2): GELU()\n",
      "        )\n",
      "        (conv2): Sequential(\n",
      "          (0): Conv2d(1024, 256, kernel_size=(1, 1), stride=(1, 1))\n",
      "          (1): BatchNorm2d(256, eps=1e-05, momentum=0.1, affine=True, track_running_stats=True)\n",
      "        )\n",
      "      )\n",
      "    )\n",
      "    (13): CMTBlock(\n",
      "      (lpu): LPU(\n",
      "        (DWConv): DWCONV(\n",
      "          (depthwise): Conv2d(256, 256, kernel_size=(3, 3), stride=(1, 1), padding=(1, 1), groups=256)\n",
      "        )\n",
      "      )\n",
      "      (lmhsa): LMHSA(\n",
      "        (dwconv_k): DWCONV(\n",
      "          (depthwise): Conv2d(256, 256, kernel_size=(3, 3), stride=(2, 2), padding=(1, 1), groups=256)\n",
      "        )\n",
      "        (dwconv_v): DWCONV(\n",
      "          (depthwise): Conv2d(256, 256, kernel_size=(3, 3), stride=(2, 2), padding=(1, 1), groups=256)\n",
      "        )\n",
      "        (fc_q): Linear(in_features=256, out_features=128, bias=True)\n",
      "        (fc_k): Linear(in_features=256, out_features=128, bias=True)\n",
      "        (fc_v): Linear(in_features=256, out_features=128, bias=True)\n",
      "        (fc_o): Linear(in_features=128, out_features=256, bias=True)\n",
      "      )\n",
      "      (irffn): IRFFN(\n",
      "        (conv1): Sequential(\n",
      "          (0): Conv2d(256, 1024, kernel_size=(1, 1), stride=(1, 1))\n",
      "          (1): BatchNorm2d(1024, eps=1e-05, momentum=0.1, affine=True, track_running_stats=True)\n",
      "          (2): GELU()\n",
      "        )\n",
      "        (dwconv): Sequential(\n",
      "          (0): DWCONV(\n",
      "            (depthwise): Conv2d(1024, 1024, kernel_size=(3, 3), stride=(1, 1), padding=(1, 1), groups=1024)\n",
      "          )\n",
      "          (1): BatchNorm2d(1024, eps=1e-05, momentum=0.1, affine=True, track_running_stats=True)\n",
      "          (2): GELU()\n",
      "        )\n",
      "        (conv2): Sequential(\n",
      "          (0): Conv2d(1024, 256, kernel_size=(1, 1), stride=(1, 1))\n",
      "          (1): BatchNorm2d(256, eps=1e-05, momentum=0.1, affine=True, track_running_stats=True)\n",
      "        )\n",
      "      )\n",
      "    )\n",
      "    (14): CMTBlock(\n",
      "      (lpu): LPU(\n",
      "        (DWConv): DWCONV(\n",
      "          (depthwise): Conv2d(256, 256, kernel_size=(3, 3), stride=(1, 1), padding=(1, 1), groups=256)\n",
      "        )\n",
      "      )\n",
      "      (lmhsa): LMHSA(\n",
      "        (dwconv_k): DWCONV(\n",
      "          (depthwise): Conv2d(256, 256, kernel_size=(3, 3), stride=(2, 2), padding=(1, 1), groups=256)\n",
      "        )\n",
      "        (dwconv_v): DWCONV(\n",
      "          (depthwise): Conv2d(256, 256, kernel_size=(3, 3), stride=(2, 2), padding=(1, 1), groups=256)\n",
      "        )\n",
      "        (fc_q): Linear(in_features=256, out_features=128, bias=True)\n",
      "        (fc_k): Linear(in_features=256, out_features=128, bias=True)\n",
      "        (fc_v): Linear(in_features=256, out_features=128, bias=True)\n",
      "        (fc_o): Linear(in_features=128, out_features=256, bias=True)\n",
      "      )\n",
      "      (irffn): IRFFN(\n",
      "        (conv1): Sequential(\n",
      "          (0): Conv2d(256, 1024, kernel_size=(1, 1), stride=(1, 1))\n",
      "          (1): BatchNorm2d(1024, eps=1e-05, momentum=0.1, affine=True, track_running_stats=True)\n",
      "          (2): GELU()\n",
      "        )\n",
      "        (dwconv): Sequential(\n",
      "          (0): DWCONV(\n",
      "            (depthwise): Conv2d(1024, 1024, kernel_size=(3, 3), stride=(1, 1), padding=(1, 1), groups=1024)\n",
      "          )\n",
      "          (1): BatchNorm2d(1024, eps=1e-05, momentum=0.1, affine=True, track_running_stats=True)\n",
      "          (2): GELU()\n",
      "        )\n",
      "        (conv2): Sequential(\n",
      "          (0): Conv2d(1024, 256, kernel_size=(1, 1), stride=(1, 1))\n",
      "          (1): BatchNorm2d(256, eps=1e-05, momentum=0.1, affine=True, track_running_stats=True)\n",
      "        )\n",
      "      )\n",
      "    )\n",
      "    (15): CMTBlock(\n",
      "      (lpu): LPU(\n",
      "        (DWConv): DWCONV(\n",
      "          (depthwise): Conv2d(256, 256, kernel_size=(3, 3), stride=(1, 1), padding=(1, 1), groups=256)\n",
      "        )\n",
      "      )\n",
      "      (lmhsa): LMHSA(\n",
      "        (dwconv_k): DWCONV(\n",
      "          (depthwise): Conv2d(256, 256, kernel_size=(3, 3), stride=(2, 2), padding=(1, 1), groups=256)\n",
      "        )\n",
      "        (dwconv_v): DWCONV(\n",
      "          (depthwise): Conv2d(256, 256, kernel_size=(3, 3), stride=(2, 2), padding=(1, 1), groups=256)\n",
      "        )\n",
      "        (fc_q): Linear(in_features=256, out_features=128, bias=True)\n",
      "        (fc_k): Linear(in_features=256, out_features=128, bias=True)\n",
      "        (fc_v): Linear(in_features=256, out_features=128, bias=True)\n",
      "        (fc_o): Linear(in_features=128, out_features=256, bias=True)\n",
      "      )\n",
      "      (irffn): IRFFN(\n",
      "        (conv1): Sequential(\n",
      "          (0): Conv2d(256, 1024, kernel_size=(1, 1), stride=(1, 1))\n",
      "          (1): BatchNorm2d(1024, eps=1e-05, momentum=0.1, affine=True, track_running_stats=True)\n",
      "          (2): GELU()\n",
      "        )\n",
      "        (dwconv): Sequential(\n",
      "          (0): DWCONV(\n",
      "            (depthwise): Conv2d(1024, 1024, kernel_size=(3, 3), stride=(1, 1), padding=(1, 1), groups=1024)\n",
      "          )\n",
      "          (1): BatchNorm2d(1024, eps=1e-05, momentum=0.1, affine=True, track_running_stats=True)\n",
      "          (2): GELU()\n",
      "        )\n",
      "        (conv2): Sequential(\n",
      "          (0): Conv2d(1024, 256, kernel_size=(1, 1), stride=(1, 1))\n",
      "          (1): BatchNorm2d(256, eps=1e-05, momentum=0.1, affine=True, track_running_stats=True)\n",
      "        )\n",
      "      )\n",
      "    )\n",
      "  )\n",
      "  (up_conv_7): UpsampleBlock(\n",
      "    (conv): Conv2d(256, 1024, kernel_size=(3, 3), stride=(1, 1), padding=(1, 1))\n",
      "    (pixel_shuffle): PixelShuffle(upscale_factor=2)\n",
      "    (prelu): PReLU(num_parameters=1)\n",
      "  )\n",
      "  (conv_block_7): ConvBlock(\n",
      "    (conv1): Conv2d(256, 128, kernel_size=(1, 1), stride=(1, 1))\n",
      "    (conv2): Conv2d(128, 128, kernel_size=(3, 3), stride=(1, 1), padding=(1, 1))\n",
      "    (relu): LeakyReLU(negative_slope=0.01)\n",
      "  )\n",
      "  (cmt_stage_7): Sequential(\n",
      "    (0): CMTBlock(\n",
      "      (lpu): LPU(\n",
      "        (DWConv): DWCONV(\n",
      "          (depthwise): Conv2d(128, 128, kernel_size=(3, 3), stride=(1, 1), padding=(1, 1), groups=128)\n",
      "        )\n",
      "      )\n",
      "      (lmhsa): LMHSA(\n",
      "        (dwconv_k): DWCONV(\n",
      "          (depthwise): Conv2d(128, 128, kernel_size=(3, 3), stride=(4, 4), padding=(1, 1), groups=128)\n",
      "        )\n",
      "        (dwconv_v): DWCONV(\n",
      "          (depthwise): Conv2d(128, 128, kernel_size=(3, 3), stride=(4, 4), padding=(1, 1), groups=128)\n",
      "        )\n",
      "        (fc_q): Linear(in_features=128, out_features=64, bias=True)\n",
      "        (fc_k): Linear(in_features=128, out_features=64, bias=True)\n",
      "        (fc_v): Linear(in_features=128, out_features=64, bias=True)\n",
      "        (fc_o): Linear(in_features=64, out_features=128, bias=True)\n",
      "      )\n",
      "      (irffn): IRFFN(\n",
      "        (conv1): Sequential(\n",
      "          (0): Conv2d(128, 512, kernel_size=(1, 1), stride=(1, 1))\n",
      "          (1): BatchNorm2d(512, eps=1e-05, momentum=0.1, affine=True, track_running_stats=True)\n",
      "          (2): GELU()\n",
      "        )\n",
      "        (dwconv): Sequential(\n",
      "          (0): DWCONV(\n",
      "            (depthwise): Conv2d(512, 512, kernel_size=(3, 3), stride=(1, 1), padding=(1, 1), groups=512)\n",
      "          )\n",
      "          (1): BatchNorm2d(512, eps=1e-05, momentum=0.1, affine=True, track_running_stats=True)\n",
      "          (2): GELU()\n",
      "        )\n",
      "        (conv2): Sequential(\n",
      "          (0): Conv2d(512, 128, kernel_size=(1, 1), stride=(1, 1))\n",
      "          (1): BatchNorm2d(128, eps=1e-05, momentum=0.1, affine=True, track_running_stats=True)\n",
      "        )\n",
      "      )\n",
      "    )\n",
      "    (1): CMTBlock(\n",
      "      (lpu): LPU(\n",
      "        (DWConv): DWCONV(\n",
      "          (depthwise): Conv2d(128, 128, kernel_size=(3, 3), stride=(1, 1), padding=(1, 1), groups=128)\n",
      "        )\n",
      "      )\n",
      "      (lmhsa): LMHSA(\n",
      "        (dwconv_k): DWCONV(\n",
      "          (depthwise): Conv2d(128, 128, kernel_size=(3, 3), stride=(4, 4), padding=(1, 1), groups=128)\n",
      "        )\n",
      "        (dwconv_v): DWCONV(\n",
      "          (depthwise): Conv2d(128, 128, kernel_size=(3, 3), stride=(4, 4), padding=(1, 1), groups=128)\n",
      "        )\n",
      "        (fc_q): Linear(in_features=128, out_features=64, bias=True)\n",
      "        (fc_k): Linear(in_features=128, out_features=64, bias=True)\n",
      "        (fc_v): Linear(in_features=128, out_features=64, bias=True)\n",
      "        (fc_o): Linear(in_features=64, out_features=128, bias=True)\n",
      "      )\n",
      "      (irffn): IRFFN(\n",
      "        (conv1): Sequential(\n",
      "          (0): Conv2d(128, 512, kernel_size=(1, 1), stride=(1, 1))\n",
      "          (1): BatchNorm2d(512, eps=1e-05, momentum=0.1, affine=True, track_running_stats=True)\n",
      "          (2): GELU()\n",
      "        )\n",
      "        (dwconv): Sequential(\n",
      "          (0): DWCONV(\n",
      "            (depthwise): Conv2d(512, 512, kernel_size=(3, 3), stride=(1, 1), padding=(1, 1), groups=512)\n",
      "          )\n",
      "          (1): BatchNorm2d(512, eps=1e-05, momentum=0.1, affine=True, track_running_stats=True)\n",
      "          (2): GELU()\n",
      "        )\n",
      "        (conv2): Sequential(\n",
      "          (0): Conv2d(512, 128, kernel_size=(1, 1), stride=(1, 1))\n",
      "          (1): BatchNorm2d(128, eps=1e-05, momentum=0.1, affine=True, track_running_stats=True)\n",
      "        )\n",
      "      )\n",
      "    )\n",
      "    (2): CMTBlock(\n",
      "      (lpu): LPU(\n",
      "        (DWConv): DWCONV(\n",
      "          (depthwise): Conv2d(128, 128, kernel_size=(3, 3), stride=(1, 1), padding=(1, 1), groups=128)\n",
      "        )\n",
      "      )\n",
      "      (lmhsa): LMHSA(\n",
      "        (dwconv_k): DWCONV(\n",
      "          (depthwise): Conv2d(128, 128, kernel_size=(3, 3), stride=(4, 4), padding=(1, 1), groups=128)\n",
      "        )\n",
      "        (dwconv_v): DWCONV(\n",
      "          (depthwise): Conv2d(128, 128, kernel_size=(3, 3), stride=(4, 4), padding=(1, 1), groups=128)\n",
      "        )\n",
      "        (fc_q): Linear(in_features=128, out_features=64, bias=True)\n",
      "        (fc_k): Linear(in_features=128, out_features=64, bias=True)\n",
      "        (fc_v): Linear(in_features=128, out_features=64, bias=True)\n",
      "        (fc_o): Linear(in_features=64, out_features=128, bias=True)\n",
      "      )\n",
      "      (irffn): IRFFN(\n",
      "        (conv1): Sequential(\n",
      "          (0): Conv2d(128, 512, kernel_size=(1, 1), stride=(1, 1))\n",
      "          (1): BatchNorm2d(512, eps=1e-05, momentum=0.1, affine=True, track_running_stats=True)\n",
      "          (2): GELU()\n",
      "        )\n",
      "        (dwconv): Sequential(\n",
      "          (0): DWCONV(\n",
      "            (depthwise): Conv2d(512, 512, kernel_size=(3, 3), stride=(1, 1), padding=(1, 1), groups=512)\n",
      "          )\n",
      "          (1): BatchNorm2d(512, eps=1e-05, momentum=0.1, affine=True, track_running_stats=True)\n",
      "          (2): GELU()\n",
      "        )\n",
      "        (conv2): Sequential(\n",
      "          (0): Conv2d(512, 128, kernel_size=(1, 1), stride=(1, 1))\n",
      "          (1): BatchNorm2d(128, eps=1e-05, momentum=0.1, affine=True, track_running_stats=True)\n",
      "        )\n",
      "      )\n",
      "    )\n",
      "  )\n",
      "  (up_conv_8): UpsampleBlock(\n",
      "    (conv): Conv2d(128, 512, kernel_size=(3, 3), stride=(1, 1), padding=(1, 1))\n",
      "    (pixel_shuffle): PixelShuffle(upscale_factor=2)\n",
      "    (prelu): PReLU(num_parameters=1)\n",
      "  )\n",
      "  (conv_block_8): ConvBlock(\n",
      "    (conv1): Conv2d(128, 64, kernel_size=(1, 1), stride=(1, 1))\n",
      "    (conv2): Conv2d(64, 64, kernel_size=(3, 3), stride=(1, 1), padding=(1, 1))\n",
      "    (relu): LeakyReLU(negative_slope=0.01)\n",
      "  )\n",
      "  (cmt_stage_8): Sequential(\n",
      "    (0): CMTBlock(\n",
      "      (lpu): LPU(\n",
      "        (DWConv): DWCONV(\n",
      "          (depthwise): Conv2d(64, 64, kernel_size=(3, 3), stride=(1, 1), padding=(1, 1), groups=64)\n",
      "        )\n",
      "      )\n",
      "      (lmhsa): LMHSA(\n",
      "        (dwconv_k): DWCONV(\n",
      "          (depthwise): Conv2d(64, 64, kernel_size=(3, 3), stride=(8, 8), padding=(1, 1), groups=64)\n",
      "        )\n",
      "        (dwconv_v): DWCONV(\n",
      "          (depthwise): Conv2d(64, 64, kernel_size=(3, 3), stride=(8, 8), padding=(1, 1), groups=64)\n",
      "        )\n",
      "        (fc_q): Linear(in_features=64, out_features=32, bias=True)\n",
      "        (fc_k): Linear(in_features=64, out_features=32, bias=True)\n",
      "        (fc_v): Linear(in_features=64, out_features=32, bias=True)\n",
      "        (fc_o): Linear(in_features=32, out_features=64, bias=True)\n",
      "      )\n",
      "      (irffn): IRFFN(\n",
      "        (conv1): Sequential(\n",
      "          (0): Conv2d(64, 256, kernel_size=(1, 1), stride=(1, 1))\n",
      "          (1): BatchNorm2d(256, eps=1e-05, momentum=0.1, affine=True, track_running_stats=True)\n",
      "          (2): GELU()\n",
      "        )\n",
      "        (dwconv): Sequential(\n",
      "          (0): DWCONV(\n",
      "            (depthwise): Conv2d(256, 256, kernel_size=(3, 3), stride=(1, 1), padding=(1, 1), groups=256)\n",
      "          )\n",
      "          (1): BatchNorm2d(256, eps=1e-05, momentum=0.1, affine=True, track_running_stats=True)\n",
      "          (2): GELU()\n",
      "        )\n",
      "        (conv2): Sequential(\n",
      "          (0): Conv2d(256, 64, kernel_size=(1, 1), stride=(1, 1))\n",
      "          (1): BatchNorm2d(64, eps=1e-05, momentum=0.1, affine=True, track_running_stats=True)\n",
      "        )\n",
      "      )\n",
      "    )\n",
      "    (1): CMTBlock(\n",
      "      (lpu): LPU(\n",
      "        (DWConv): DWCONV(\n",
      "          (depthwise): Conv2d(64, 64, kernel_size=(3, 3), stride=(1, 1), padding=(1, 1), groups=64)\n",
      "        )\n",
      "      )\n",
      "      (lmhsa): LMHSA(\n",
      "        (dwconv_k): DWCONV(\n",
      "          (depthwise): Conv2d(64, 64, kernel_size=(3, 3), stride=(8, 8), padding=(1, 1), groups=64)\n",
      "        )\n",
      "        (dwconv_v): DWCONV(\n",
      "          (depthwise): Conv2d(64, 64, kernel_size=(3, 3), stride=(8, 8), padding=(1, 1), groups=64)\n",
      "        )\n",
      "        (fc_q): Linear(in_features=64, out_features=32, bias=True)\n",
      "        (fc_k): Linear(in_features=64, out_features=32, bias=True)\n",
      "        (fc_v): Linear(in_features=64, out_features=32, bias=True)\n",
      "        (fc_o): Linear(in_features=32, out_features=64, bias=True)\n",
      "      )\n",
      "      (irffn): IRFFN(\n",
      "        (conv1): Sequential(\n",
      "          (0): Conv2d(64, 256, kernel_size=(1, 1), stride=(1, 1))\n",
      "          (1): BatchNorm2d(256, eps=1e-05, momentum=0.1, affine=True, track_running_stats=True)\n",
      "          (2): GELU()\n",
      "        )\n",
      "        (dwconv): Sequential(\n",
      "          (0): DWCONV(\n",
      "            (depthwise): Conv2d(256, 256, kernel_size=(3, 3), stride=(1, 1), padding=(1, 1), groups=256)\n",
      "          )\n",
      "          (1): BatchNorm2d(256, eps=1e-05, momentum=0.1, affine=True, track_running_stats=True)\n",
      "          (2): GELU()\n",
      "        )\n",
      "        (conv2): Sequential(\n",
      "          (0): Conv2d(256, 64, kernel_size=(1, 1), stride=(1, 1))\n",
      "          (1): BatchNorm2d(64, eps=1e-05, momentum=0.1, affine=True, track_running_stats=True)\n",
      "        )\n",
      "      )\n",
      "    )\n",
      "    (2): CMTBlock(\n",
      "      (lpu): LPU(\n",
      "        (DWConv): DWCONV(\n",
      "          (depthwise): Conv2d(64, 64, kernel_size=(3, 3), stride=(1, 1), padding=(1, 1), groups=64)\n",
      "        )\n",
      "      )\n",
      "      (lmhsa): LMHSA(\n",
      "        (dwconv_k): DWCONV(\n",
      "          (depthwise): Conv2d(64, 64, kernel_size=(3, 3), stride=(8, 8), padding=(1, 1), groups=64)\n",
      "        )\n",
      "        (dwconv_v): DWCONV(\n",
      "          (depthwise): Conv2d(64, 64, kernel_size=(3, 3), stride=(8, 8), padding=(1, 1), groups=64)\n",
      "        )\n",
      "        (fc_q): Linear(in_features=64, out_features=32, bias=True)\n",
      "        (fc_k): Linear(in_features=64, out_features=32, bias=True)\n",
      "        (fc_v): Linear(in_features=64, out_features=32, bias=True)\n",
      "        (fc_o): Linear(in_features=32, out_features=64, bias=True)\n",
      "      )\n",
      "      (irffn): IRFFN(\n",
      "        (conv1): Sequential(\n",
      "          (0): Conv2d(64, 256, kernel_size=(1, 1), stride=(1, 1))\n",
      "          (1): BatchNorm2d(256, eps=1e-05, momentum=0.1, affine=True, track_running_stats=True)\n",
      "          (2): GELU()\n",
      "        )\n",
      "        (dwconv): Sequential(\n",
      "          (0): DWCONV(\n",
      "            (depthwise): Conv2d(256, 256, kernel_size=(3, 3), stride=(1, 1), padding=(1, 1), groups=256)\n",
      "          )\n",
      "          (1): BatchNorm2d(256, eps=1e-05, momentum=0.1, affine=True, track_running_stats=True)\n",
      "          (2): GELU()\n",
      "        )\n",
      "        (conv2): Sequential(\n",
      "          (0): Conv2d(256, 64, kernel_size=(1, 1), stride=(1, 1))\n",
      "          (1): BatchNorm2d(64, eps=1e-05, momentum=0.1, affine=True, track_running_stats=True)\n",
      "        )\n",
      "      )\n",
      "    )\n",
      "  )\n",
      "  (output_Proj): OutputProj(\n",
      "    (conv1): Conv2d(64, 1, kernel_size=(3, 3), stride=(1, 1), padding=(1, 1), bias=False)\n",
      "  )\n",
      "  (relu): LeakyReLU(negative_slope=0.01)\n",
      ")\n"
     ]
    },
    {
     "name": "stdout",
     "output_type": "stream",
     "text": [
      "Start training for 1000 epochs\n",
      "Traceback (most recent call last):\n",
      "  File \"train.py\", line 334, in <module>\n",
      "    main(args)\n",
…
